{"config": {"layers": [{"config": {"batch_input_shape": [null, 224, 224, 3], "dtype": "float32", "name": "input_1", "sparse": false}, "class_name": "InputLayer", "inbound_nodes": [], "name": "input_1"}, {"config": {"use_bias": false, "name": "conv2d_1", "bias_constraint": null, "strides": [2, 2], "padding": "valid", "activation": "linear", "kernel_constraint": null, "activity_regularizer": null, "trainable": true, "kernel_initializer": {"config": {"scale": 1.0, "distribution": "uniform", "mode": "fan_avg", "seed": null}, "class_name": "VarianceScaling"}, "kernel_size": [3, 3], "dilation_rate": [1, 1], "kernel_regularizer": null, "bias_regularizer": null, "filters": 32, "data_format": "channels_last", "bias_initializer": {"config": {}, "class_name": "Zeros"}}, "class_name": "Conv2D", "inbound_nodes": [[["input_1", 0, 0, {}]]], "name": "conv2d_1"}, {"config": {"gamma_regularizer": null, "center": true, "scale": false, "name": "batch_normalization_1", "beta_initializer": {"config": {}, "class_name": "Zeros"}, "momentum": 0.99, "moving_mean_initializer": {"config": {}, "class_name": "Zeros"}, "beta_constraint": null, "gamma_constraint": null, "trainable": true, "axis": 3, "moving_variance_initializer": {"config": {}, "class_name": "Ones"}, "beta_regularizer": null, "epsilon": 0.001, "gamma_initializer": {"config": {}, "class_name": "Ones"}}, "class_name": "BatchNormalization", "inbound_nodes": [[["conv2d_1", 0, 0, {}]]], "name": "batch_normalization_1"}, {"config": {"trainable": true, "name": "activation_1", "activation": "relu"}, "class_name": "Activation", "inbound_nodes": [[["batch_normalization_1", 0, 0, {}]]], "name": "activation_1"}, {"config": {"use_bias": false, "name": "conv2d_2", "bias_constraint": null, "strides": [1, 1], "padding": "valid", "activation": "linear", "kernel_constraint": null, "activity_regularizer": null, "trainable": true, "kernel_initializer": {"config": {"scale": 1.0, "distribution": "uniform", "mode": "fan_avg", "seed": null}, "class_name": "VarianceScaling"}, "kernel_size": [3, 3], "dilation_rate": [1, 1], "kernel_regularizer": null, "bias_regularizer": null, "filters": 32, "data_format": "channels_last", "bias_initializer": {"config": {}, "class_name": "Zeros"}}, "class_name": "Conv2D", "inbound_nodes": [[["activation_1", 0, 0, {}]]], "name": "conv2d_2"}, {"config": {"gamma_regularizer": null, "center": true, "scale": false, "name": "batch_normalization_2", "beta_initializer": {"config": {}, "class_name": "Zeros"}, "momentum": 0.99, "moving_mean_initializer": {"config": {}, "class_name": "Zeros"}, "beta_constraint": null, "gamma_constraint": null, "trainable": true, "axis": 3, "moving_variance_initializer": {"config": {}, "class_name": "Ones"}, "beta_regularizer": null, "epsilon": 0.001, "gamma_initializer": {"config": {}, "class_name": "Ones"}}, "class_name": "BatchNormalization", "inbound_nodes": [[["conv2d_2", 0, 0, {}]]], "name": "batch_normalization_2"}, {"config": {"trainable": true, "name": "activation_2", "activation": "relu"}, "class_name": "Activation", "inbound_nodes": [[["batch_normalization_2", 0, 0, {}]]], "name": "activation_2"}, {"config": {"use_bias": false, "name": "conv2d_3", "bias_constraint": null, "strides": [1, 1], "padding": "same", "activation": "linear", "kernel_constraint": null, "activity_regularizer": null, "trainable": true, "kernel_initializer": {"config": {"scale": 1.0, "distribution": "uniform", "mode": "fan_avg", "seed": null}, "class_name": "VarianceScaling"}, "kernel_size": [3, 3], "dilation_rate": [1, 1], "kernel_regularizer": null, "bias_regularizer": null, "filters": 64, "data_format": "channels_last", "bias_initializer": {"config": {}, "class_name": "Zeros"}}, "class_name": "Conv2D", "inbound_nodes": [[["activation_2", 0, 0, {}]]], "name": "conv2d_3"}, {"config": {"gamma_regularizer": null, "center": true, "scale": false, "name": "batch_normalization_3", "beta_initializer": {"config": {}, "class_name": "Zeros"}, "momentum": 0.99, "moving_mean_initializer": {"config": {}, "class_name": "Zeros"}, "beta_constraint": null, "gamma_constraint": null, "trainable": true, "axis": 3, "moving_variance_initializer": {"config": {}, "class_name": "Ones"}, "beta_regularizer": null, "epsilon": 0.001, "gamma_initializer": {"config": {}, "class_name": "Ones"}}, "class_name": "BatchNormalization", "inbound_nodes": [[["conv2d_3", 0, 0, {}]]], "name": "batch_normalization_3"}, {"config": {"trainable": true, "name": "activation_3", "activation": "relu"}, "class_name": "Activation", "inbound_nodes": [[["batch_normalization_3", 0, 0, {}]]], "name": "activation_3"}, {"config": {"strides": [2, 2], "name": "max_pooling2d_1", "pool_size": [3, 3], "padding": "valid", "data_format": "channels_last", "trainable": true}, "class_name": "MaxPooling2D", "inbound_nodes": [[["activation_3", 0, 0, {}]]], "name": "max_pooling2d_1"}, {"config": {"use_bias": false, "name": "conv2d_4", "bias_constraint": null, "strides": [1, 1], "padding": "valid", "activation": "linear", "kernel_constraint": null, "activity_regularizer": null, "trainable": true, "kernel_initializer": {"config": {"scale": 1.0, "distribution": "uniform", "mode": "fan_avg", "seed": null}, "class_name": "VarianceScaling"}, "kernel_size": [1, 1], "dilation_rate": [1, 1], "kernel_regularizer": null, "bias_regularizer": null, "filters": 80, "data_format": "channels_last", "bias_initializer": {"config": {}, "class_name": "Zeros"}}, "class_name": "Conv2D", "inbound_nodes": [[["max_pooling2d_1", 0, 0, {}]]], "name": "conv2d_4"}, {"config": {"gamma_regularizer": null, "center": true, "scale": false, "name": "batch_normalization_4", "beta_initializer": {"config": {}, "class_name": "Zeros"}, "momentum": 0.99, "moving_mean_initializer": {"config": {}, "class_name": "Zeros"}, "beta_constraint": null, "gamma_constraint": null, "trainable": true, "axis": 3, "moving_variance_initializer": {"config": {}, "class_name": "Ones"}, "beta_regularizer": null, "epsilon": 0.001, "gamma_initializer": {"config": {}, "class_name": "Ones"}}, "class_name": "BatchNormalization", "inbound_nodes": [[["conv2d_4", 0, 0, {}]]], "name": "batch_normalization_4"}, {"config": {"trainable": true, "name": "activation_4", "activation": "relu"}, "class_name": "Activation", "inbound_nodes": [[["batch_normalization_4", 0, 0, {}]]], "name": "activation_4"}, {"config": {"use_bias": false, "name": "conv2d_5", "bias_constraint": null, "strides": [1, 1], "padding": "valid", "activation": "linear", "kernel_constraint": null, "activity_regularizer": null, "trainable": true, "kernel_initializer": {"config": {"scale": 1.0, "distribution": "uniform", "mode": "fan_avg", "seed": null}, "class_name": "VarianceScaling"}, "kernel_size": [3, 3], "dilation_rate": [1, 1], "kernel_regularizer": null, "bias_regularizer": null, "filters": 192, "data_format": "channels_last", "bias_initializer": {"config": {}, "class_name": "Zeros"}}, "class_name": "Conv2D", "inbound_nodes": [[["activation_4", 0, 0, {}]]], "name": "conv2d_5"}, {"config": {"gamma_regularizer": null, "center": true, "scale": false, "name": "batch_normalization_5", "beta_initializer": {"config": {}, "class_name": "Zeros"}, "momentum": 0.99, "moving_mean_initializer": {"config": {}, "class_name": "Zeros"}, "beta_constraint": null, "gamma_constraint": null, "trainable": true, "axis": 3, "moving_variance_initializer": {"config": {}, "class_name": "Ones"}, "beta_regularizer": null, "epsilon": 0.001, "gamma_initializer": {"config": {}, "class_name": "Ones"}}, "class_name": "BatchNormalization", "inbound_nodes": [[["conv2d_5", 0, 0, {}]]], "name": "batch_normalization_5"}, {"config": {"trainable": true, "name": "activation_5", "activation": "relu"}, "class_name": "Activation", "inbound_nodes": [[["batch_normalization_5", 0, 0, {}]]], "name": "activation_5"}, {"config": {"strides": [2, 2], "name": "max_pooling2d_2", "pool_size": [3, 3], "padding": "valid", "data_format": "channels_last", "trainable": true}, "class_name": "MaxPooling2D", "inbound_nodes": [[["activation_5", 0, 0, {}]]], "name": "max_pooling2d_2"}, {"config": {"use_bias": false, "name": "conv2d_9", "bias_constraint": null, "strides": [1, 1], "padding": "same", "activation": "linear", "kernel_constraint": null, "activity_regularizer": null, "trainable": true, "kernel_initializer": {"config": {"scale": 1.0, "distribution": "uniform", "mode": "fan_avg", "seed": null}, "class_name": "VarianceScaling"}, "kernel_size": [1, 1], "dilation_rate": [1, 1], "kernel_regularizer": null, "bias_regularizer": null, "filters": 64, "data_format": "channels_last", "bias_initializer": {"config": {}, "class_name": "Zeros"}}, "class_name": "Conv2D", "inbound_nodes": [[["max_pooling2d_2", 0, 0, {}]]], "name": "conv2d_9"}, {"config": {"gamma_regularizer": null, "center": true, "scale": false, "name": "batch_normalization_9", "beta_initializer": {"config": {}, "class_name": "Zeros"}, "momentum": 0.99, "moving_mean_initializer": {"config": {}, "class_name": "Zeros"}, "beta_constraint": null, "gamma_constraint": null, "trainable": true, "axis": 3, "moving_variance_initializer": {"config": {}, "class_name": "Ones"}, "beta_regularizer": null, "epsilon": 0.001, "gamma_initializer": {"config": {}, "class_name": "Ones"}}, "class_name": "BatchNormalization", "inbound_nodes": [[["conv2d_9", 0, 0, {}]]], "name": "batch_normalization_9"}, {"config": {"trainable": true, "name": "activation_9", "activation": "relu"}, "class_name": "Activation", "inbound_nodes": [[["batch_normalization_9", 0, 0, {}]]], "name": "activation_9"}, {"config": {"use_bias": false, "name": "conv2d_7", "bias_constraint": null, "strides": [1, 1], "padding": "same", "activation": "linear", "kernel_constraint": null, "activity_regularizer": null, "trainable": true, "kernel_initializer": {"config": {"scale": 1.0, "distribution": "uniform", "mode": "fan_avg", "seed": null}, "class_name": "VarianceScaling"}, "kernel_size": [1, 1], "dilation_rate": [1, 1], "kernel_regularizer": null, "bias_regularizer": null, "filters": 48, "data_format": "channels_last", "bias_initializer": {"config": {}, "class_name": "Zeros"}}, "class_name": "Conv2D", "inbound_nodes": [[["max_pooling2d_2", 0, 0, {}]]], "name": "conv2d_7"}, {"config": {"use_bias": false, "name": "conv2d_10", "bias_constraint": null, "strides": [1, 1], "padding": "same", "activation": "linear", "kernel_constraint": null, "activity_regularizer": null, "trainable": true, "kernel_initializer": {"config": {"scale": 1.0, "distribution": "uniform", "mode": "fan_avg", "seed": null}, "class_name": "VarianceScaling"}, "kernel_size": [3, 3], "dilation_rate": [1, 1], "kernel_regularizer": null, "bias_regularizer": null, "filters": 96, "data_format": "channels_last", "bias_initializer": {"config": {}, "class_name": "Zeros"}}, "class_name": "Conv2D", "inbound_nodes": [[["activation_9", 0, 0, {}]]], "name": "conv2d_10"}, {"config": {"gamma_regularizer": null, "center": true, "scale": false, "name": "batch_normalization_7", "beta_initializer": {"config": {}, "class_name": "Zeros"}, "momentum": 0.99, "moving_mean_initializer": {"config": {}, "class_name": "Zeros"}, "beta_constraint": null, "gamma_constraint": null, "trainable": true, "axis": 3, "moving_variance_initializer": {"config": {}, "class_name": "Ones"}, "beta_regularizer": null, "epsilon": 0.001, "gamma_initializer": {"config": {}, "class_name": "Ones"}}, "class_name": "BatchNormalization", "inbound_nodes": [[["conv2d_7", 0, 0, {}]]], "name": "batch_normalization_7"}, {"config": {"gamma_regularizer": null, "center": true, "scale": false, "name": "batch_normalization_10", "beta_initializer": {"config": {}, "class_name": "Zeros"}, "momentum": 0.99, "moving_mean_initializer": {"config": {}, "class_name": "Zeros"}, "beta_constraint": null, "gamma_constraint": null, "trainable": true, "axis": 3, "moving_variance_initializer": {"config": {}, "class_name": "Ones"}, "beta_regularizer": null, "epsilon": 0.001, "gamma_initializer": {"config": {}, "class_name": "Ones"}}, "class_name": "BatchNormalization", "inbound_nodes": [[["conv2d_10", 0, 0, {}]]], "name": "batch_normalization_10"}, {"config": {"trainable": true, "name": "activation_7", "activation": "relu"}, "class_name": "Activation", "inbound_nodes": [[["batch_normalization_7", 0, 0, {}]]], "name": "activation_7"}, {"config": {"trainable": true, "name": "activation_10", "activation": "relu"}, "class_name": "Activation", "inbound_nodes": [[["batch_normalization_10", 0, 0, {}]]], "name": "activation_10"}, {"config": {"strides": [1, 1], "name": "average_pooling2d_1", "pool_size": [3, 3], "padding": "same", "data_format": "channels_last", "trainable": true}, "class_name": "AveragePooling2D", "inbound_nodes": [[["max_pooling2d_2", 0, 0, {}]]], "name": "average_pooling2d_1"}, {"config": {"use_bias": false, "name": "conv2d_6", "bias_constraint": null, "strides": [1, 1], "padding": "same", "activation": "linear", "kernel_constraint": null, "activity_regularizer": null, "trainable": true, "kernel_initializer": {"config": {"scale": 1.0, "distribution": "uniform", "mode": "fan_avg", "seed": null}, "class_name": "VarianceScaling"}, "kernel_size": [1, 1], "dilation_rate": [1, 1], "kernel_regularizer": null, "bias_regularizer": null, "filters": 64, "data_format": "channels_last", "bias_initializer": {"config": {}, "class_name": "Zeros"}}, "class_name": "Conv2D", "inbound_nodes": [[["max_pooling2d_2", 0, 0, {}]]], "name": "conv2d_6"}, {"config": {"use_bias": false, "name": "conv2d_8", "bias_constraint": null, "strides": [1, 1], "padding": "same", "activation": "linear", "kernel_constraint": null, "activity_regularizer": null, "trainable": true, "kernel_initializer": {"config": {"scale": 1.0, "distribution": "uniform", "mode": "fan_avg", "seed": null}, "class_name": "VarianceScaling"}, "kernel_size": [5, 5], "dilation_rate": [1, 1], "kernel_regularizer": null, "bias_regularizer": null, "filters": 64, "data_format": "channels_last", "bias_initializer": {"config": {}, "class_name": "Zeros"}}, "class_name": "Conv2D", "inbound_nodes": [[["activation_7", 0, 0, {}]]], "name": "conv2d_8"}, {"config": {"use_bias": false, "name": "conv2d_11", "bias_constraint": null, "strides": [1, 1], "padding": "same", "activation": "linear", "kernel_constraint": null, "activity_regularizer": null, "trainable": true, "kernel_initializer": {"config": {"scale": 1.0, "distribution": "uniform", "mode": "fan_avg", "seed": null}, "class_name": "VarianceScaling"}, "kernel_size": [3, 3], "dilation_rate": [1, 1], "kernel_regularizer": null, "bias_regularizer": null, "filters": 96, "data_format": "channels_last", "bias_initializer": {"config": {}, "class_name": "Zeros"}}, "class_name": "Conv2D", "inbound_nodes": [[["activation_10", 0, 0, {}]]], "name": "conv2d_11"}, {"config": {"use_bias": false, "name": "conv2d_12", "bias_constraint": null, "strides": [1, 1], "padding": "same", "activation": "linear", "kernel_constraint": null, "activity_regularizer": null, "trainable": true, "kernel_initializer": {"config": {"scale": 1.0, "distribution": "uniform", "mode": "fan_avg", "seed": null}, "class_name": "VarianceScaling"}, "kernel_size": [1, 1], "dilation_rate": [1, 1], "kernel_regularizer": null, "bias_regularizer": null, "filters": 32, "data_format": "channels_last", "bias_initializer": {"config": {}, "class_name": "Zeros"}}, "class_name": "Conv2D", "inbound_nodes": [[["average_pooling2d_1", 0, 0, {}]]], "name": "conv2d_12"}, {"config": {"gamma_regularizer": null, "center": true, "scale": false, "name": "batch_normalization_6", "beta_initializer": {"config": {}, "class_name": "Zeros"}, "momentum": 0.99, "moving_mean_initializer": {"config": {}, "class_name": "Zeros"}, "beta_constraint": null, "gamma_constraint": null, "trainable": true, "axis": 3, "moving_variance_initializer": {"config": {}, "class_name": "Ones"}, "beta_regularizer": null, "epsilon": 0.001, "gamma_initializer": {"config": {}, "class_name": "Ones"}}, "class_name": "BatchNormalization", "inbound_nodes": [[["conv2d_6", 0, 0, {}]]], "name": "batch_normalization_6"}, {"config": {"gamma_regularizer": null, "center": true, "scale": false, "name": "batch_normalization_8", "beta_initializer": {"config": {}, "class_name": "Zeros"}, "momentum": 0.99, "moving_mean_initializer": {"config": {}, "class_name": "Zeros"}, "beta_constraint": null, "gamma_constraint": null, "trainable": true, "axis": 3, "moving_variance_initializer": {"config": {}, "class_name": "Ones"}, "beta_regularizer": null, "epsilon": 0.001, "gamma_initializer": {"config": {}, "class_name": "Ones"}}, "class_name": "BatchNormalization", "inbound_nodes": [[["conv2d_8", 0, 0, {}]]], "name": "batch_normalization_8"}, {"config": {"gamma_regularizer": null, "center": true, "scale": false, "name": "batch_normalization_11", "beta_initializer": {"config": {}, "class_name": "Zeros"}, "momentum": 0.99, "moving_mean_initializer": {"config": {}, "class_name": "Zeros"}, "beta_constraint": null, "gamma_constraint": null, "trainable": true, "axis": 3, "moving_variance_initializer": {"config": {}, "class_name": "Ones"}, "beta_regularizer": null, "epsilon": 0.001, "gamma_initializer": {"config": {}, "class_name": "Ones"}}, "class_name": "BatchNormalization", "inbound_nodes": [[["conv2d_11", 0, 0, {}]]], "name": "batch_normalization_11"}, {"config": {"gamma_regularizer": null, "center": true, "scale": false, "name": "batch_normalization_12", "beta_initializer": {"config": {}, "class_name": "Zeros"}, "momentum": 0.99, "moving_mean_initializer": {"config": {}, "class_name": "Zeros"}, "beta_constraint": null, "gamma_constraint": null, "trainable": true, "axis": 3, "moving_variance_initializer": {"config": {}, "class_name": "Ones"}, "beta_regularizer": null, "epsilon": 0.001, "gamma_initializer": {"config": {}, "class_name": "Ones"}}, "class_name": "BatchNormalization", "inbound_nodes": [[["conv2d_12", 0, 0, {}]]], "name": "batch_normalization_12"}, {"config": {"trainable": true, "name": "activation_6", "activation": "relu"}, "class_name": "Activation", "inbound_nodes": [[["batch_normalization_6", 0, 0, {}]]], "name": "activation_6"}, {"config": {"trainable": true, "name": "activation_8", "activation": "relu"}, "class_name": "Activation", "inbound_nodes": [[["batch_normalization_8", 0, 0, {}]]], "name": "activation_8"}, {"config": {"trainable": true, "name": "activation_11", "activation": "relu"}, "class_name": "Activation", "inbound_nodes": [[["batch_normalization_11", 0, 0, {}]]], "name": "activation_11"}, {"config": {"trainable": true, "name": "activation_12", "activation": "relu"}, "class_name": "Activation", "inbound_nodes": [[["batch_normalization_12", 0, 0, {}]]], "name": "activation_12"}, {"config": {"axis": 3, "trainable": true, "name": "mixed0"}, "class_name": "Concatenate", "inbound_nodes": [[["activation_6", 0, 0, {}], ["activation_8", 0, 0, {}], ["activation_11", 0, 0, {}], ["activation_12", 0, 0, {}]]], "name": "mixed0"}, {"config": {"use_bias": false, "name": "conv2d_16", "bias_constraint": null, "strides": [1, 1], "padding": "same", "activation": "linear", "kernel_constraint": null, "activity_regularizer": null, "trainable": true, "kernel_initializer": {"config": {"scale": 1.0, "distribution": "uniform", "mode": "fan_avg", "seed": null}, "class_name": "VarianceScaling"}, "kernel_size": [1, 1], "dilation_rate": [1, 1], "kernel_regularizer": null, "bias_regularizer": null, "filters": 64, "data_format": "channels_last", "bias_initializer": {"config": {}, "class_name": "Zeros"}}, "class_name": "Conv2D", "inbound_nodes": [[["mixed0", 0, 0, {}]]], "name": "conv2d_16"}, {"config": {"gamma_regularizer": null, "center": true, "scale": false, "name": "batch_normalization_16", "beta_initializer": {"config": {}, "class_name": "Zeros"}, "momentum": 0.99, "moving_mean_initializer": {"config": {}, "class_name": "Zeros"}, "beta_constraint": null, "gamma_constraint": null, "trainable": true, "axis": 3, "moving_variance_initializer": {"config": {}, "class_name": "Ones"}, "beta_regularizer": null, "epsilon": 0.001, "gamma_initializer": {"config": {}, "class_name": "Ones"}}, "class_name": "BatchNormalization", "inbound_nodes": [[["conv2d_16", 0, 0, {}]]], "name": "batch_normalization_16"}, {"config": {"trainable": true, "name": "activation_16", "activation": "relu"}, "class_name": "Activation", "inbound_nodes": [[["batch_normalization_16", 0, 0, {}]]], "name": "activation_16"}, {"config": {"use_bias": false, "name": "conv2d_14", "bias_constraint": null, "strides": [1, 1], "padding": "same", "activation": "linear", "kernel_constraint": null, "activity_regularizer": null, "trainable": true, "kernel_initializer": {"config": {"scale": 1.0, "distribution": "uniform", "mode": "fan_avg", "seed": null}, "class_name": "VarianceScaling"}, "kernel_size": [1, 1], "dilation_rate": [1, 1], "kernel_regularizer": null, "bias_regularizer": null, "filters": 48, "data_format": "channels_last", "bias_initializer": {"config": {}, "class_name": "Zeros"}}, "class_name": "Conv2D", "inbound_nodes": [[["mixed0", 0, 0, {}]]], "name": "conv2d_14"}, {"config": {"use_bias": false, "name": "conv2d_17", "bias_constraint": null, "strides": [1, 1], "padding": "same", "activation": "linear", "kernel_constraint": null, "activity_regularizer": null, "trainable": true, "kernel_initializer": {"config": {"scale": 1.0, "distribution": "uniform", "mode": "fan_avg", "seed": null}, "class_name": "VarianceScaling"}, "kernel_size": [3, 3], "dilation_rate": [1, 1], "kernel_regularizer": null, "bias_regularizer": null, "filters": 96, "data_format": "channels_last", "bias_initializer": {"config": {}, "class_name": "Zeros"}}, "class_name": "Conv2D", "inbound_nodes": [[["activation_16", 0, 0, {}]]], "name": "conv2d_17"}, {"config": {"gamma_regularizer": null, "center": true, "scale": false, "name": "batch_normalization_14", "beta_initializer": {"config": {}, "class_name": "Zeros"}, "momentum": 0.99, "moving_mean_initializer": {"config": {}, "class_name": "Zeros"}, "beta_constraint": null, "gamma_constraint": null, "trainable": true, "axis": 3, "moving_variance_initializer": {"config": {}, "class_name": "Ones"}, "beta_regularizer": null, "epsilon": 0.001, "gamma_initializer": {"config": {}, "class_name": "Ones"}}, "class_name": "BatchNormalization", "inbound_nodes": [[["conv2d_14", 0, 0, {}]]], "name": "batch_normalization_14"}, {"config": {"gamma_regularizer": null, "center": true, "scale": false, "name": "batch_normalization_17", "beta_initializer": {"config": {}, "class_name": "Zeros"}, "momentum": 0.99, "moving_mean_initializer": {"config": {}, "class_name": "Zeros"}, "beta_constraint": null, "gamma_constraint": null, "trainable": true, "axis": 3, "moving_variance_initializer": {"config": {}, "class_name": "Ones"}, "beta_regularizer": null, "epsilon": 0.001, "gamma_initializer": {"config": {}, "class_name": "Ones"}}, "class_name": "BatchNormalization", "inbound_nodes": [[["conv2d_17", 0, 0, {}]]], "name": "batch_normalization_17"}, {"config": {"trainable": true, "name": "activation_14", "activation": "relu"}, "class_name": "Activation", "inbound_nodes": [[["batch_normalization_14", 0, 0, {}]]], "name": "activation_14"}, {"config": {"trainable": true, "name": "activation_17", "activation": "relu"}, "class_name": "Activation", "inbound_nodes": [[["batch_normalization_17", 0, 0, {}]]], "name": "activation_17"}, {"config": {"strides": [1, 1], "name": "average_pooling2d_2", "pool_size": [3, 3], "padding": "same", "data_format": "channels_last", "trainable": true}, "class_name": "AveragePooling2D", "inbound_nodes": [[["mixed0", 0, 0, {}]]], "name": "average_pooling2d_2"}, {"config": {"use_bias": false, "name": "conv2d_13", "bias_constraint": null, "strides": [1, 1], "padding": "same", "activation": "linear", "kernel_constraint": null, "activity_regularizer": null, "trainable": true, "kernel_initializer": {"config": {"scale": 1.0, "distribution": "uniform", "mode": "fan_avg", "seed": null}, "class_name": "VarianceScaling"}, "kernel_size": [1, 1], "dilation_rate": [1, 1], "kernel_regularizer": null, "bias_regularizer": null, "filters": 64, "data_format": "channels_last", "bias_initializer": {"config": {}, "class_name": "Zeros"}}, "class_name": "Conv2D", "inbound_nodes": [[["mixed0", 0, 0, {}]]], "name": "conv2d_13"}, {"config": {"use_bias": false, "name": "conv2d_15", "bias_constraint": null, "strides": [1, 1], "padding": "same", "activation": "linear", "kernel_constraint": null, "activity_regularizer": null, "trainable": true, "kernel_initializer": {"config": {"scale": 1.0, "distribution": "uniform", "mode": "fan_avg", "seed": null}, "class_name": "VarianceScaling"}, "kernel_size": [5, 5], "dilation_rate": [1, 1], "kernel_regularizer": null, "bias_regularizer": null, "filters": 64, "data_format": "channels_last", "bias_initializer": {"config": {}, "class_name": "Zeros"}}, "class_name": "Conv2D", "inbound_nodes": [[["activation_14", 0, 0, {}]]], "name": "conv2d_15"}, {"config": {"use_bias": false, "name": "conv2d_18", "bias_constraint": null, "strides": [1, 1], "padding": "same", "activation": "linear", "kernel_constraint": null, "activity_regularizer": null, "trainable": true, "kernel_initializer": {"config": {"scale": 1.0, "distribution": "uniform", "mode": "fan_avg", "seed": null}, "class_name": "VarianceScaling"}, "kernel_size": [3, 3], "dilation_rate": [1, 1], "kernel_regularizer": null, "bias_regularizer": null, "filters": 96, "data_format": "channels_last", "bias_initializer": {"config": {}, "class_name": "Zeros"}}, "class_name": "Conv2D", "inbound_nodes": [[["activation_17", 0, 0, {}]]], "name": "conv2d_18"}, {"config": {"use_bias": false, "name": "conv2d_19", "bias_constraint": null, "strides": [1, 1], "padding": "same", "activation": "linear", "kernel_constraint": null, "activity_regularizer": null, "trainable": true, "kernel_initializer": {"config": {"scale": 1.0, "distribution": "uniform", "mode": "fan_avg", "seed": null}, "class_name": "VarianceScaling"}, "kernel_size": [1, 1], "dilation_rate": [1, 1], "kernel_regularizer": null, "bias_regularizer": null, "filters": 64, "data_format": "channels_last", "bias_initializer": {"config": {}, "class_name": "Zeros"}}, "class_name": "Conv2D", "inbound_nodes": [[["average_pooling2d_2", 0, 0, {}]]], "name": "conv2d_19"}, {"config": {"gamma_regularizer": null, "center": true, "scale": false, "name": "batch_normalization_13", "beta_initializer": {"config": {}, "class_name": "Zeros"}, "momentum": 0.99, "moving_mean_initializer": {"config": {}, "class_name": "Zeros"}, "beta_constraint": null, "gamma_constraint": null, "trainable": true, "axis": 3, "moving_variance_initializer": {"config": {}, "class_name": "Ones"}, "beta_regularizer": null, "epsilon": 0.001, "gamma_initializer": {"config": {}, "class_name": "Ones"}}, "class_name": "BatchNormalization", "inbound_nodes": [[["conv2d_13", 0, 0, {}]]], "name": "batch_normalization_13"}, {"config": {"gamma_regularizer": null, "center": true, "scale": false, "name": "batch_normalization_15", "beta_initializer": {"config": {}, "class_name": "Zeros"}, "momentum": 0.99, "moving_mean_initializer": {"config": {}, "class_name": "Zeros"}, "beta_constraint": null, "gamma_constraint": null, "trainable": true, "axis": 3, "moving_variance_initializer": {"config": {}, "class_name": "Ones"}, "beta_regularizer": null, "epsilon": 0.001, "gamma_initializer": {"config": {}, "class_name": "Ones"}}, "class_name": "BatchNormalization", "inbound_nodes": [[["conv2d_15", 0, 0, {}]]], "name": "batch_normalization_15"}, {"config": {"gamma_regularizer": null, "center": true, "scale": false, "name": "batch_normalization_18", "beta_initializer": {"config": {}, "class_name": "Zeros"}, "momentum": 0.99, "moving_mean_initializer": {"config": {}, "class_name": "Zeros"}, "beta_constraint": null, "gamma_constraint": null, "trainable": true, "axis": 3, "moving_variance_initializer": {"config": {}, "class_name": "Ones"}, "beta_regularizer": null, "epsilon": 0.001, "gamma_initializer": {"config": {}, "class_name": "Ones"}}, "class_name": "BatchNormalization", "inbound_nodes": [[["conv2d_18", 0, 0, {}]]], "name": "batch_normalization_18"}, {"config": {"gamma_regularizer": null, "center": true, "scale": false, "name": "batch_normalization_19", "beta_initializer": {"config": {}, "class_name": "Zeros"}, "momentum": 0.99, "moving_mean_initializer": {"config": {}, "class_name": "Zeros"}, "beta_constraint": null, "gamma_constraint": null, "trainable": true, "axis": 3, "moving_variance_initializer": {"config": {}, "class_name": "Ones"}, "beta_regularizer": null, "epsilon": 0.001, "gamma_initializer": {"config": {}, "class_name": "Ones"}}, "class_name": "BatchNormalization", "inbound_nodes": [[["conv2d_19", 0, 0, {}]]], "name": "batch_normalization_19"}, {"config": {"trainable": true, "name": "activation_13", "activation": "relu"}, "class_name": "Activation", "inbound_nodes": [[["batch_normalization_13", 0, 0, {}]]], "name": "activation_13"}, {"config": {"trainable": true, "name": "activation_15", "activation": "relu"}, "class_name": "Activation", "inbound_nodes": [[["batch_normalization_15", 0, 0, {}]]], "name": "activation_15"}, {"config": {"trainable": true, "name": "activation_18", "activation": "relu"}, "class_name": "Activation", "inbound_nodes": [[["batch_normalization_18", 0, 0, {}]]], "name": "activation_18"}, {"config": {"trainable": true, "name": "activation_19", "activation": "relu"}, "class_name": "Activation", "inbound_nodes": [[["batch_normalization_19", 0, 0, {}]]], "name": "activation_19"}, {"config": {"axis": 3, "trainable": true, "name": "mixed1"}, "class_name": "Concatenate", "inbound_nodes": [[["activation_13", 0, 0, {}], ["activation_15", 0, 0, {}], ["activation_18", 0, 0, {}], ["activation_19", 0, 0, {}]]], "name": "mixed1"}, {"config": {"use_bias": false, "name": "conv2d_23", "bias_constraint": null, "strides": [1, 1], "padding": "same", "activation": "linear", "kernel_constraint": null, "activity_regularizer": null, "trainable": true, "kernel_initializer": {"config": {"scale": 1.0, "distribution": "uniform", "mode": "fan_avg", "seed": null}, "class_name": "VarianceScaling"}, "kernel_size": [1, 1], "dilation_rate": [1, 1], "kernel_regularizer": null, "bias_regularizer": null, "filters": 64, "data_format": "channels_last", "bias_initializer": {"config": {}, "class_name": "Zeros"}}, "class_name": "Conv2D", "inbound_nodes": [[["mixed1", 0, 0, {}]]], "name": "conv2d_23"}, {"config": {"gamma_regularizer": null, "center": true, "scale": false, "name": "batch_normalization_23", "beta_initializer": {"config": {}, "class_name": "Zeros"}, "momentum": 0.99, "moving_mean_initializer": {"config": {}, "class_name": "Zeros"}, "beta_constraint": null, "gamma_constraint": null, "trainable": true, "axis": 3, "moving_variance_initializer": {"config": {}, "class_name": "Ones"}, "beta_regularizer": null, "epsilon": 0.001, "gamma_initializer": {"config": {}, "class_name": "Ones"}}, "class_name": "BatchNormalization", "inbound_nodes": [[["conv2d_23", 0, 0, {}]]], "name": "batch_normalization_23"}, {"config": {"trainable": true, "name": "activation_23", "activation": "relu"}, "class_name": "Activation", "inbound_nodes": [[["batch_normalization_23", 0, 0, {}]]], "name": "activation_23"}, {"config": {"use_bias": false, "name": "conv2d_21", "bias_constraint": null, "strides": [1, 1], "padding": "same", "activation": "linear", "kernel_constraint": null, "activity_regularizer": null, "trainable": true, "kernel_initializer": {"config": {"scale": 1.0, "distribution": "uniform", "mode": "fan_avg", "seed": null}, "class_name": "VarianceScaling"}, "kernel_size": [1, 1], "dilation_rate": [1, 1], "kernel_regularizer": null, "bias_regularizer": null, "filters": 48, "data_format": "channels_last", "bias_initializer": {"config": {}, "class_name": "Zeros"}}, "class_name": "Conv2D", "inbound_nodes": [[["mixed1", 0, 0, {}]]], "name": "conv2d_21"}, {"config": {"use_bias": false, "name": "conv2d_24", "bias_constraint": null, "strides": [1, 1], "padding": "same", "activation": "linear", "kernel_constraint": null, "activity_regularizer": null, "trainable": true, "kernel_initializer": {"config": {"scale": 1.0, "distribution": "uniform", "mode": "fan_avg", "seed": null}, "class_name": "VarianceScaling"}, "kernel_size": [3, 3], "dilation_rate": [1, 1], "kernel_regularizer": null, "bias_regularizer": null, "filters": 96, "data_format": "channels_last", "bias_initializer": {"config": {}, "class_name": "Zeros"}}, "class_name": "Conv2D", "inbound_nodes": [[["activation_23", 0, 0, {}]]], "name": "conv2d_24"}, {"config": {"gamma_regularizer": null, "center": true, "scale": false, "name": "batch_normalization_21", "beta_initializer": {"config": {}, "class_name": "Zeros"}, "momentum": 0.99, "moving_mean_initializer": {"config": {}, "class_name": "Zeros"}, "beta_constraint": null, "gamma_constraint": null, "trainable": true, "axis": 3, "moving_variance_initializer": {"config": {}, "class_name": "Ones"}, "beta_regularizer": null, "epsilon": 0.001, "gamma_initializer": {"config": {}, "class_name": "Ones"}}, "class_name": "BatchNormalization", "inbound_nodes": [[["conv2d_21", 0, 0, {}]]], "name": "batch_normalization_21"}, {"config": {"gamma_regularizer": null, "center": true, "scale": false, "name": "batch_normalization_24", "beta_initializer": {"config": {}, "class_name": "Zeros"}, "momentum": 0.99, "moving_mean_initializer": {"config": {}, "class_name": "Zeros"}, "beta_constraint": null, "gamma_constraint": null, "trainable": true, "axis": 3, "moving_variance_initializer": {"config": {}, "class_name": "Ones"}, "beta_regularizer": null, "epsilon": 0.001, "gamma_initializer": {"config": {}, "class_name": "Ones"}}, "class_name": "BatchNormalization", "inbound_nodes": [[["conv2d_24", 0, 0, {}]]], "name": "batch_normalization_24"}, {"config": {"trainable": true, "name": "activation_21", "activation": "relu"}, "class_name": "Activation", "inbound_nodes": [[["batch_normalization_21", 0, 0, {}]]], "name": "activation_21"}, {"config": {"trainable": true, "name": "activation_24", "activation": "relu"}, "class_name": "Activation", "inbound_nodes": [[["batch_normalization_24", 0, 0, {}]]], "name": "activation_24"}, {"config": {"strides": [1, 1], "name": "average_pooling2d_3", "pool_size": [3, 3], "padding": "same", "data_format": "channels_last", "trainable": true}, "class_name": "AveragePooling2D", "inbound_nodes": [[["mixed1", 0, 0, {}]]], "name": "average_pooling2d_3"}, {"config": {"use_bias": false, "name": "conv2d_20", "bias_constraint": null, "strides": [1, 1], "padding": "same", "activation": "linear", "kernel_constraint": null, "activity_regularizer": null, "trainable": true, "kernel_initializer": {"config": {"scale": 1.0, "distribution": "uniform", "mode": "fan_avg", "seed": null}, "class_name": "VarianceScaling"}, "kernel_size": [1, 1], "dilation_rate": [1, 1], "kernel_regularizer": null, "bias_regularizer": null, "filters": 64, "data_format": "channels_last", "bias_initializer": {"config": {}, "class_name": "Zeros"}}, "class_name": "Conv2D", "inbound_nodes": [[["mixed1", 0, 0, {}]]], "name": "conv2d_20"}, {"config": {"use_bias": false, "name": "conv2d_22", "bias_constraint": null, "strides": [1, 1], "padding": "same", "activation": "linear", "kernel_constraint": null, "activity_regularizer": null, "trainable": true, "kernel_initializer": {"config": {"scale": 1.0, "distribution": "uniform", "mode": "fan_avg", "seed": null}, "class_name": "VarianceScaling"}, "kernel_size": [5, 5], "dilation_rate": [1, 1], "kernel_regularizer": null, "bias_regularizer": null, "filters": 64, "data_format": "channels_last", "bias_initializer": {"config": {}, "class_name": "Zeros"}}, "class_name": "Conv2D", "inbound_nodes": [[["activation_21", 0, 0, {}]]], "name": "conv2d_22"}, {"config": {"use_bias": false, "name": "conv2d_25", "bias_constraint": null, "strides": [1, 1], "padding": "same", "activation": "linear", "kernel_constraint": null, "activity_regularizer": null, "trainable": true, "kernel_initializer": {"config": {"scale": 1.0, "distribution": "uniform", "mode": "fan_avg", "seed": null}, "class_name": "VarianceScaling"}, "kernel_size": [3, 3], "dilation_rate": [1, 1], "kernel_regularizer": null, "bias_regularizer": null, "filters": 96, "data_format": "channels_last", "bias_initializer": {"config": {}, "class_name": "Zeros"}}, "class_name": "Conv2D", "inbound_nodes": [[["activation_24", 0, 0, {}]]], "name": "conv2d_25"}, {"config": {"use_bias": false, "name": "conv2d_26", "bias_constraint": null, "strides": [1, 1], "padding": "same", "activation": "linear", "kernel_constraint": null, "activity_regularizer": null, "trainable": true, "kernel_initializer": {"config": {"scale": 1.0, "distribution": "uniform", "mode": "fan_avg", "seed": null}, "class_name": "VarianceScaling"}, "kernel_size": [1, 1], "dilation_rate": [1, 1], "kernel_regularizer": null, "bias_regularizer": null, "filters": 64, "data_format": "channels_last", "bias_initializer": {"config": {}, "class_name": "Zeros"}}, "class_name": "Conv2D", "inbound_nodes": [[["average_pooling2d_3", 0, 0, {}]]], "name": "conv2d_26"}, {"config": {"gamma_regularizer": null, "center": true, "scale": false, "name": "batch_normalization_20", "beta_initializer": {"config": {}, "class_name": "Zeros"}, "momentum": 0.99, "moving_mean_initializer": {"config": {}, "class_name": "Zeros"}, "beta_constraint": null, "gamma_constraint": null, "trainable": true, "axis": 3, "moving_variance_initializer": {"config": {}, "class_name": "Ones"}, "beta_regularizer": null, "epsilon": 0.001, "gamma_initializer": {"config": {}, "class_name": "Ones"}}, "class_name": "BatchNormalization", "inbound_nodes": [[["conv2d_20", 0, 0, {}]]], "name": "batch_normalization_20"}, {"config": {"gamma_regularizer": null, "center": true, "scale": false, "name": "batch_normalization_22", "beta_initializer": {"config": {}, "class_name": "Zeros"}, "momentum": 0.99, "moving_mean_initializer": {"config": {}, "class_name": "Zeros"}, "beta_constraint": null, "gamma_constraint": null, "trainable": true, "axis": 3, "moving_variance_initializer": {"config": {}, "class_name": "Ones"}, "beta_regularizer": null, "epsilon": 0.001, "gamma_initializer": {"config": {}, "class_name": "Ones"}}, "class_name": "BatchNormalization", "inbound_nodes": [[["conv2d_22", 0, 0, {}]]], "name": "batch_normalization_22"}, {"config": {"gamma_regularizer": null, "center": true, "scale": false, "name": "batch_normalization_25", "beta_initializer": {"config": {}, "class_name": "Zeros"}, "momentum": 0.99, "moving_mean_initializer": {"config": {}, "class_name": "Zeros"}, "beta_constraint": null, "gamma_constraint": null, "trainable": true, "axis": 3, "moving_variance_initializer": {"config": {}, "class_name": "Ones"}, "beta_regularizer": null, "epsilon": 0.001, "gamma_initializer": {"config": {}, "class_name": "Ones"}}, "class_name": "BatchNormalization", "inbound_nodes": [[["conv2d_25", 0, 0, {}]]], "name": "batch_normalization_25"}, {"config": {"gamma_regularizer": null, "center": true, "scale": false, "name": "batch_normalization_26", "beta_initializer": {"config": {}, "class_name": "Zeros"}, "momentum": 0.99, "moving_mean_initializer": {"config": {}, "class_name": "Zeros"}, "beta_constraint": null, "gamma_constraint": null, "trainable": true, "axis": 3, "moving_variance_initializer": {"config": {}, "class_name": "Ones"}, "beta_regularizer": null, "epsilon": 0.001, "gamma_initializer": {"config": {}, "class_name": "Ones"}}, "class_name": "BatchNormalization", "inbound_nodes": [[["conv2d_26", 0, 0, {}]]], "name": "batch_normalization_26"}, {"config": {"trainable": true, "name": "activation_20", "activation": "relu"}, "class_name": "Activation", "inbound_nodes": [[["batch_normalization_20", 0, 0, {}]]], "name": "activation_20"}, {"config": {"trainable": true, "name": "activation_22", "activation": "relu"}, "class_name": "Activation", "inbound_nodes": [[["batch_normalization_22", 0, 0, {}]]], "name": "activation_22"}, {"config": {"trainable": true, "name": "activation_25", "activation": "relu"}, "class_name": "Activation", "inbound_nodes": [[["batch_normalization_25", 0, 0, {}]]], "name": "activation_25"}, {"config": {"trainable": true, "name": "activation_26", "activation": "relu"}, "class_name": "Activation", "inbound_nodes": [[["batch_normalization_26", 0, 0, {}]]], "name": "activation_26"}, {"config": {"axis": 3, "trainable": true, "name": "mixed2"}, "class_name": "Concatenate", "inbound_nodes": [[["activation_20", 0, 0, {}], ["activation_22", 0, 0, {}], ["activation_25", 0, 0, {}], ["activation_26", 0, 0, {}]]], "name": "mixed2"}, {"config": {"use_bias": false, "name": "conv2d_28", "bias_constraint": null, "strides": [1, 1], "padding": "same", "activation": "linear", "kernel_constraint": null, "activity_regularizer": null, "trainable": true, "kernel_initializer": {"config": {"scale": 1.0, "distribution": "uniform", "mode": "fan_avg", "seed": null}, "class_name": "VarianceScaling"}, "kernel_size": [1, 1], "dilation_rate": [1, 1], "kernel_regularizer": null, "bias_regularizer": null, "filters": 64, "data_format": "channels_last", "bias_initializer": {"config": {}, "class_name": "Zeros"}}, "class_name": "Conv2D", "inbound_nodes": [[["mixed2", 0, 0, {}]]], "name": "conv2d_28"}, {"config": {"gamma_regularizer": null, "center": true, "scale": false, "name": "batch_normalization_28", "beta_initializer": {"config": {}, "class_name": "Zeros"}, "momentum": 0.99, "moving_mean_initializer": {"config": {}, "class_name": "Zeros"}, "beta_constraint": null, "gamma_constraint": null, "trainable": true, "axis": 3, "moving_variance_initializer": {"config": {}, "class_name": "Ones"}, "beta_regularizer": null, "epsilon": 0.001, "gamma_initializer": {"config": {}, "class_name": "Ones"}}, "class_name": "BatchNormalization", "inbound_nodes": [[["conv2d_28", 0, 0, {}]]], "name": "batch_normalization_28"}, {"config": {"trainable": true, "name": "activation_28", "activation": "relu"}, "class_name": "Activation", "inbound_nodes": [[["batch_normalization_28", 0, 0, {}]]], "name": "activation_28"}, {"config": {"use_bias": false, "name": "conv2d_29", "bias_constraint": null, "strides": [1, 1], "padding": "same", "activation": "linear", "kernel_constraint": null, "activity_regularizer": null, "trainable": true, "kernel_initializer": {"config": {"scale": 1.0, "distribution": "uniform", "mode": "fan_avg", "seed": null}, "class_name": "VarianceScaling"}, "kernel_size": [3, 3], "dilation_rate": [1, 1], "kernel_regularizer": null, "bias_regularizer": null, "filters": 96, "data_format": "channels_last", "bias_initializer": {"config": {}, "class_name": "Zeros"}}, "class_name": "Conv2D", "inbound_nodes": [[["activation_28", 0, 0, {}]]], "name": "conv2d_29"}, {"config": {"gamma_regularizer": null, "center": true, "scale": false, "name": "batch_normalization_29", "beta_initializer": {"config": {}, "class_name": "Zeros"}, "momentum": 0.99, "moving_mean_initializer": {"config": {}, "class_name": "Zeros"}, "beta_constraint": null, "gamma_constraint": null, "trainable": true, "axis": 3, "moving_variance_initializer": {"config": {}, "class_name": "Ones"}, "beta_regularizer": null, "epsilon": 0.001, "gamma_initializer": {"config": {}, "class_name": "Ones"}}, "class_name": "BatchNormalization", "inbound_nodes": [[["conv2d_29", 0, 0, {}]]], "name": "batch_normalization_29"}, {"config": {"trainable": true, "name": "activation_29", "activation": "relu"}, "class_name": "Activation", "inbound_nodes": [[["batch_normalization_29", 0, 0, {}]]], "name": "activation_29"}, {"config": {"use_bias": false, "name": "conv2d_27", "bias_constraint": null, "strides": [2, 2], "padding": "valid", "activation": "linear", "kernel_constraint": null, "activity_regularizer": null, "trainable": true, "kernel_initializer": {"config": {"scale": 1.0, "distribution": "uniform", "mode": "fan_avg", "seed": null}, "class_name": "VarianceScaling"}, "kernel_size": [3, 3], "dilation_rate": [1, 1], "kernel_regularizer": null, "bias_regularizer": null, "filters": 384, "data_format": "channels_last", "bias_initializer": {"config": {}, "class_name": "Zeros"}}, "class_name": "Conv2D", "inbound_nodes": [[["mixed2", 0, 0, {}]]], "name": "conv2d_27"}, {"config": {"use_bias": false, "name": "conv2d_30", "bias_constraint": null, "strides": [2, 2], "padding": "valid", "activation": "linear", "kernel_constraint": null, "activity_regularizer": null, "trainable": true, "kernel_initializer": {"config": {"scale": 1.0, "distribution": "uniform", "mode": "fan_avg", "seed": null}, "class_name": "VarianceScaling"}, "kernel_size": [3, 3], "dilation_rate": [1, 1], "kernel_regularizer": null, "bias_regularizer": null, "filters": 96, "data_format": "channels_last", "bias_initializer": {"config": {}, "class_name": "Zeros"}}, "class_name": "Conv2D", "inbound_nodes": [[["activation_29", 0, 0, {}]]], "name": "conv2d_30"}, {"config": {"gamma_regularizer": null, "center": true, "scale": false, "name": "batch_normalization_27", "beta_initializer": {"config": {}, "class_name": "Zeros"}, "momentum": 0.99, "moving_mean_initializer": {"config": {}, "class_name": "Zeros"}, "beta_constraint": null, "gamma_constraint": null, "trainable": true, "axis": 3, "moving_variance_initializer": {"config": {}, "class_name": "Ones"}, "beta_regularizer": null, "epsilon": 0.001, "gamma_initializer": {"config": {}, "class_name": "Ones"}}, "class_name": "BatchNormalization", "inbound_nodes": [[["conv2d_27", 0, 0, {}]]], "name": "batch_normalization_27"}, {"config": {"gamma_regularizer": null, "center": true, "scale": false, "name": "batch_normalization_30", "beta_initializer": {"config": {}, "class_name": "Zeros"}, "momentum": 0.99, "moving_mean_initializer": {"config": {}, "class_name": "Zeros"}, "beta_constraint": null, "gamma_constraint": null, "trainable": true, "axis": 3, "moving_variance_initializer": {"config": {}, "class_name": "Ones"}, "beta_regularizer": null, "epsilon": 0.001, "gamma_initializer": {"config": {}, "class_name": "Ones"}}, "class_name": "BatchNormalization", "inbound_nodes": [[["conv2d_30", 0, 0, {}]]], "name": "batch_normalization_30"}, {"config": {"trainable": true, "name": "activation_27", "activation": "relu"}, "class_name": "Activation", "inbound_nodes": [[["batch_normalization_27", 0, 0, {}]]], "name": "activation_27"}, {"config": {"trainable": true, "name": "activation_30", "activation": "relu"}, "class_name": "Activation", "inbound_nodes": [[["batch_normalization_30", 0, 0, {}]]], "name": "activation_30"}, {"config": {"strides": [2, 2], "name": "max_pooling2d_3", "pool_size": [3, 3], "padding": "valid", "data_format": "channels_last", "trainable": true}, "class_name": "MaxPooling2D", "inbound_nodes": [[["mixed2", 0, 0, {}]]], "name": "max_pooling2d_3"}, {"config": {"axis": 3, "trainable": true, "name": "mixed3"}, "class_name": "Concatenate", "inbound_nodes": [[["activation_27", 0, 0, {}], ["activation_30", 0, 0, {}], ["max_pooling2d_3", 0, 0, {}]]], "name": "mixed3"}, {"config": {"use_bias": false, "name": "conv2d_35", "bias_constraint": null, "strides": [1, 1], "padding": "same", "activation": "linear", "kernel_constraint": null, "activity_regularizer": null, "trainable": true, "kernel_initializer": {"config": {"scale": 1.0, "distribution": "uniform", "mode": "fan_avg", "seed": null}, "class_name": "VarianceScaling"}, "kernel_size": [1, 1], "dilation_rate": [1, 1], "kernel_regularizer": null, "bias_regularizer": null, "filters": 128, "data_format": "channels_last", "bias_initializer": {"config": {}, "class_name": "Zeros"}}, "class_name": "Conv2D", "inbound_nodes": [[["mixed3", 0, 0, {}]]], "name": "conv2d_35"}, {"config": {"gamma_regularizer": null, "center": true, "scale": false, "name": "batch_normalization_35", "beta_initializer": {"config": {}, "class_name": "Zeros"}, "momentum": 0.99, "moving_mean_initializer": {"config": {}, "class_name": "Zeros"}, "beta_constraint": null, "gamma_constraint": null, "trainable": true, "axis": 3, "moving_variance_initializer": {"config": {}, "class_name": "Ones"}, "beta_regularizer": null, "epsilon": 0.001, "gamma_initializer": {"config": {}, "class_name": "Ones"}}, "class_name": "BatchNormalization", "inbound_nodes": [[["conv2d_35", 0, 0, {}]]], "name": "batch_normalization_35"}, {"config": {"trainable": true, "name": "activation_35", "activation": "relu"}, "class_name": "Activation", "inbound_nodes": [[["batch_normalization_35", 0, 0, {}]]], "name": "activation_35"}, {"config": {"use_bias": false, "name": "conv2d_36", "bias_constraint": null, "strides": [1, 1], "padding": "same", "activation": "linear", "kernel_constraint": null, "activity_regularizer": null, "trainable": true, "kernel_initializer": {"config": {"scale": 1.0, "distribution": "uniform", "mode": "fan_avg", "seed": null}, "class_name": "VarianceScaling"}, "kernel_size": [7, 1], "dilation_rate": [1, 1], "kernel_regularizer": null, "bias_regularizer": null, "filters": 128, "data_format": "channels_last", "bias_initializer": {"config": {}, "class_name": "Zeros"}}, "class_name": "Conv2D", "inbound_nodes": [[["activation_35", 0, 0, {}]]], "name": "conv2d_36"}, {"config": {"gamma_regularizer": null, "center": true, "scale": false, "name": "batch_normalization_36", "beta_initializer": {"config": {}, "class_name": "Zeros"}, "momentum": 0.99, "moving_mean_initializer": {"config": {}, "class_name": "Zeros"}, "beta_constraint": null, "gamma_constraint": null, "trainable": true, "axis": 3, "moving_variance_initializer": {"config": {}, "class_name": "Ones"}, "beta_regularizer": null, "epsilon": 0.001, "gamma_initializer": {"config": {}, "class_name": "Ones"}}, "class_name": "BatchNormalization", "inbound_nodes": [[["conv2d_36", 0, 0, {}]]], "name": "batch_normalization_36"}, {"config": {"trainable": true, "name": "activation_36", "activation": "relu"}, "class_name": "Activation", "inbound_nodes": [[["batch_normalization_36", 0, 0, {}]]], "name": "activation_36"}, {"config": {"use_bias": false, "name": "conv2d_32", "bias_constraint": null, "strides": [1, 1], "padding": "same", "activation": "linear", "kernel_constraint": null, "activity_regularizer": null, "trainable": true, "kernel_initializer": {"config": {"scale": 1.0, "distribution": "uniform", "mode": "fan_avg", "seed": null}, "class_name": "VarianceScaling"}, "kernel_size": [1, 1], "dilation_rate": [1, 1], "kernel_regularizer": null, "bias_regularizer": null, "filters": 128, "data_format": "channels_last", "bias_initializer": {"config": {}, "class_name": "Zeros"}}, "class_name": "Conv2D", "inbound_nodes": [[["mixed3", 0, 0, {}]]], "name": "conv2d_32"}, {"config": {"use_bias": false, "name": "conv2d_37", "bias_constraint": null, "strides": [1, 1], "padding": "same", "activation": "linear", "kernel_constraint": null, "activity_regularizer": null, "trainable": true, "kernel_initializer": {"config": {"scale": 1.0, "distribution": "uniform", "mode": "fan_avg", "seed": null}, "class_name": "VarianceScaling"}, "kernel_size": [1, 7], "dilation_rate": [1, 1], "kernel_regularizer": null, "bias_regularizer": null, "filters": 128, "data_format": "channels_last", "bias_initializer": {"config": {}, "class_name": "Zeros"}}, "class_name": "Conv2D", "inbound_nodes": [[["activation_36", 0, 0, {}]]], "name": "conv2d_37"}, {"config": {"gamma_regularizer": null, "center": true, "scale": false, "name": "batch_normalization_32", "beta_initializer": {"config": {}, "class_name": "Zeros"}, "momentum": 0.99, "moving_mean_initializer": {"config": {}, "class_name": "Zeros"}, "beta_constraint": null, "gamma_constraint": null, "trainable": true, "axis": 3, "moving_variance_initializer": {"config": {}, "class_name": "Ones"}, "beta_regularizer": null, "epsilon": 0.001, "gamma_initializer": {"config": {}, "class_name": "Ones"}}, "class_name": "BatchNormalization", "inbound_nodes": [[["conv2d_32", 0, 0, {}]]], "name": "batch_normalization_32"}, {"config": {"gamma_regularizer": null, "center": true, "scale": false, "name": "batch_normalization_37", "beta_initializer": {"config": {}, "class_name": "Zeros"}, "momentum": 0.99, "moving_mean_initializer": {"config": {}, "class_name": "Zeros"}, "beta_constraint": null, "gamma_constraint": null, "trainable": true, "axis": 3, "moving_variance_initializer": {"config": {}, "class_name": "Ones"}, "beta_regularizer": null, "epsilon": 0.001, "gamma_initializer": {"config": {}, "class_name": "Ones"}}, "class_name": "BatchNormalization", "inbound_nodes": [[["conv2d_37", 0, 0, {}]]], "name": "batch_normalization_37"}, {"config": {"trainable": true, "name": "activation_32", "activation": "relu"}, "class_name": "Activation", "inbound_nodes": [[["batch_normalization_32", 0, 0, {}]]], "name": "activation_32"}, {"config": {"trainable": true, "name": "activation_37", "activation": "relu"}, "class_name": "Activation", "inbound_nodes": [[["batch_normalization_37", 0, 0, {}]]], "name": "activation_37"}, {"config": {"use_bias": false, "name": "conv2d_33", "bias_constraint": null, "strides": [1, 1], "padding": "same", "activation": "linear", "kernel_constraint": null, "activity_regularizer": null, "trainable": true, "kernel_initializer": {"config": {"scale": 1.0, "distribution": "uniform", "mode": "fan_avg", "seed": null}, "class_name": "VarianceScaling"}, "kernel_size": [1, 7], "dilation_rate": [1, 1], "kernel_regularizer": null, "bias_regularizer": null, "filters": 128, "data_format": "channels_last", "bias_initializer": {"config": {}, "class_name": "Zeros"}}, "class_name": "Conv2D", "inbound_nodes": [[["activation_32", 0, 0, {}]]], "name": "conv2d_33"}, {"config": {"use_bias": false, "name": "conv2d_38", "bias_constraint": null, "strides": [1, 1], "padding": "same", "activation": "linear", "kernel_constraint": null, "activity_regularizer": null, "trainable": true, "kernel_initializer": {"config": {"scale": 1.0, "distribution": "uniform", "mode": "fan_avg", "seed": null}, "class_name": "VarianceScaling"}, "kernel_size": [7, 1], "dilation_rate": [1, 1], "kernel_regularizer": null, "bias_regularizer": null, "filters": 128, "data_format": "channels_last", "bias_initializer": {"config": {}, "class_name": "Zeros"}}, "class_name": "Conv2D", "inbound_nodes": [[["activation_37", 0, 0, {}]]], "name": "conv2d_38"}, {"config": {"gamma_regularizer": null, "center": true, "scale": false, "name": "batch_normalization_33", "beta_initializer": {"config": {}, "class_name": "Zeros"}, "momentum": 0.99, "moving_mean_initializer": {"config": {}, "class_name": "Zeros"}, "beta_constraint": null, "gamma_constraint": null, "trainable": true, "axis": 3, "moving_variance_initializer": {"config": {}, "class_name": "Ones"}, "beta_regularizer": null, "epsilon": 0.001, "gamma_initializer": {"config": {}, "class_name": "Ones"}}, "class_name": "BatchNormalization", "inbound_nodes": [[["conv2d_33", 0, 0, {}]]], "name": "batch_normalization_33"}, {"config": {"gamma_regularizer": null, "center": true, "scale": false, "name": "batch_normalization_38", "beta_initializer": {"config": {}, "class_name": "Zeros"}, "momentum": 0.99, "moving_mean_initializer": {"config": {}, "class_name": "Zeros"}, "beta_constraint": null, "gamma_constraint": null, "trainable": true, "axis": 3, "moving_variance_initializer": {"config": {}, "class_name": "Ones"}, "beta_regularizer": null, "epsilon": 0.001, "gamma_initializer": {"config": {}, "class_name": "Ones"}}, "class_name": "BatchNormalization", "inbound_nodes": [[["conv2d_38", 0, 0, {}]]], "name": "batch_normalization_38"}, {"config": {"trainable": true, "name": "activation_33", "activation": "relu"}, "class_name": "Activation", "inbound_nodes": [[["batch_normalization_33", 0, 0, {}]]], "name": "activation_33"}, {"config": {"trainable": true, "name": "activation_38", "activation": "relu"}, "class_name": "Activation", "inbound_nodes": [[["batch_normalization_38", 0, 0, {}]]], "name": "activation_38"}, {"config": {"strides": [1, 1], "name": "average_pooling2d_4", "pool_size": [3, 3], "padding": "same", "data_format": "channels_last", "trainable": true}, "class_name": "AveragePooling2D", "inbound_nodes": [[["mixed3", 0, 0, {}]]], "name": "average_pooling2d_4"}, {"config": {"use_bias": false, "name": "conv2d_31", "bias_constraint": null, "strides": [1, 1], "padding": "same", "activation": "linear", "kernel_constraint": null, "activity_regularizer": null, "trainable": true, "kernel_initializer": {"config": {"scale": 1.0, "distribution": "uniform", "mode": "fan_avg", "seed": null}, "class_name": "VarianceScaling"}, "kernel_size": [1, 1], "dilation_rate": [1, 1], "kernel_regularizer": null, "bias_regularizer": null, "filters": 192, "data_format": "channels_last", "bias_initializer": {"config": {}, "class_name": "Zeros"}}, "class_name": "Conv2D", "inbound_nodes": [[["mixed3", 0, 0, {}]]], "name": "conv2d_31"}, {"config": {"use_bias": false, "name": "conv2d_34", "bias_constraint": null, "strides": [1, 1], "padding": "same", "activation": "linear", "kernel_constraint": null, "activity_regularizer": null, "trainable": true, "kernel_initializer": {"config": {"scale": 1.0, "distribution": "uniform", "mode": "fan_avg", "seed": null}, "class_name": "VarianceScaling"}, "kernel_size": [7, 1], "dilation_rate": [1, 1], "kernel_regularizer": null, "bias_regularizer": null, "filters": 192, "data_format": "channels_last", "bias_initializer": {"config": {}, "class_name": "Zeros"}}, "class_name": "Conv2D", "inbound_nodes": [[["activation_33", 0, 0, {}]]], "name": "conv2d_34"}, {"config": {"use_bias": false, "name": "conv2d_39", "bias_constraint": null, "strides": [1, 1], "padding": "same", "activation": "linear", "kernel_constraint": null, "activity_regularizer": null, "trainable": true, "kernel_initializer": {"config": {"scale": 1.0, "distribution": "uniform", "mode": "fan_avg", "seed": null}, "class_name": "VarianceScaling"}, "kernel_size": [1, 7], "dilation_rate": [1, 1], "kernel_regularizer": null, "bias_regularizer": null, "filters": 192, "data_format": "channels_last", "bias_initializer": {"config": {}, "class_name": "Zeros"}}, "class_name": "Conv2D", "inbound_nodes": [[["activation_38", 0, 0, {}]]], "name": "conv2d_39"}, {"config": {"use_bias": false, "name": "conv2d_40", "bias_constraint": null, "strides": [1, 1], "padding": "same", "activation": "linear", "kernel_constraint": null, "activity_regularizer": null, "trainable": true, "kernel_initializer": {"config": {"scale": 1.0, "distribution": "uniform", "mode": "fan_avg", "seed": null}, "class_name": "VarianceScaling"}, "kernel_size": [1, 1], "dilation_rate": [1, 1], "kernel_regularizer": null, "bias_regularizer": null, "filters": 192, "data_format": "channels_last", "bias_initializer": {"config": {}, "class_name": "Zeros"}}, "class_name": "Conv2D", "inbound_nodes": [[["average_pooling2d_4", 0, 0, {}]]], "name": "conv2d_40"}, {"config": {"gamma_regularizer": null, "center": true, "scale": false, "name": "batch_normalization_31", "beta_initializer": {"config": {}, "class_name": "Zeros"}, "momentum": 0.99, "moving_mean_initializer": {"config": {}, "class_name": "Zeros"}, "beta_constraint": null, "gamma_constraint": null, "trainable": true, "axis": 3, "moving_variance_initializer": {"config": {}, "class_name": "Ones"}, "beta_regularizer": null, "epsilon": 0.001, "gamma_initializer": {"config": {}, "class_name": "Ones"}}, "class_name": "BatchNormalization", "inbound_nodes": [[["conv2d_31", 0, 0, {}]]], "name": "batch_normalization_31"}, {"config": {"gamma_regularizer": null, "center": true, "scale": false, "name": "batch_normalization_34", "beta_initializer": {"config": {}, "class_name": "Zeros"}, "momentum": 0.99, "moving_mean_initializer": {"config": {}, "class_name": "Zeros"}, "beta_constraint": null, "gamma_constraint": null, "trainable": true, "axis": 3, "moving_variance_initializer": {"config": {}, "class_name": "Ones"}, "beta_regularizer": null, "epsilon": 0.001, "gamma_initializer": {"config": {}, "class_name": "Ones"}}, "class_name": "BatchNormalization", "inbound_nodes": [[["conv2d_34", 0, 0, {}]]], "name": "batch_normalization_34"}, {"config": {"gamma_regularizer": null, "center": true, "scale": false, "name": "batch_normalization_39", "beta_initializer": {"config": {}, "class_name": "Zeros"}, "momentum": 0.99, "moving_mean_initializer": {"config": {}, "class_name": "Zeros"}, "beta_constraint": null, "gamma_constraint": null, "trainable": true, "axis": 3, "moving_variance_initializer": {"config": {}, "class_name": "Ones"}, "beta_regularizer": null, "epsilon": 0.001, "gamma_initializer": {"config": {}, "class_name": "Ones"}}, "class_name": "BatchNormalization", "inbound_nodes": [[["conv2d_39", 0, 0, {}]]], "name": "batch_normalization_39"}, {"config": {"gamma_regularizer": null, "center": true, "scale": false, "name": "batch_normalization_40", "beta_initializer": {"config": {}, "class_name": "Zeros"}, "momentum": 0.99, "moving_mean_initializer": {"config": {}, "class_name": "Zeros"}, "beta_constraint": null, "gamma_constraint": null, "trainable": true, "axis": 3, "moving_variance_initializer": {"config": {}, "class_name": "Ones"}, "beta_regularizer": null, "epsilon": 0.001, "gamma_initializer": {"config": {}, "class_name": "Ones"}}, "class_name": "BatchNormalization", "inbound_nodes": [[["conv2d_40", 0, 0, {}]]], "name": "batch_normalization_40"}, {"config": {"trainable": true, "name": "activation_31", "activation": "relu"}, "class_name": "Activation", "inbound_nodes": [[["batch_normalization_31", 0, 0, {}]]], "name": "activation_31"}, {"config": {"trainable": true, "name": "activation_34", "activation": "relu"}, "class_name": "Activation", "inbound_nodes": [[["batch_normalization_34", 0, 0, {}]]], "name": "activation_34"}, {"config": {"trainable": true, "name": "activation_39", "activation": "relu"}, "class_name": "Activation", "inbound_nodes": [[["batch_normalization_39", 0, 0, {}]]], "name": "activation_39"}, {"config": {"trainable": true, "name": "activation_40", "activation": "relu"}, "class_name": "Activation", "inbound_nodes": [[["batch_normalization_40", 0, 0, {}]]], "name": "activation_40"}, {"config": {"axis": 3, "trainable": true, "name": "mixed4"}, "class_name": "Concatenate", "inbound_nodes": [[["activation_31", 0, 0, {}], ["activation_34", 0, 0, {}], ["activation_39", 0, 0, {}], ["activation_40", 0, 0, {}]]], "name": "mixed4"}, {"config": {"use_bias": false, "name": "conv2d_45", "bias_constraint": null, "strides": [1, 1], "padding": "same", "activation": "linear", "kernel_constraint": null, "activity_regularizer": null, "trainable": true, "kernel_initializer": {"config": {"scale": 1.0, "distribution": "uniform", "mode": "fan_avg", "seed": null}, "class_name": "VarianceScaling"}, "kernel_size": [1, 1], "dilation_rate": [1, 1], "kernel_regularizer": null, "bias_regularizer": null, "filters": 160, "data_format": "channels_last", "bias_initializer": {"config": {}, "class_name": "Zeros"}}, "class_name": "Conv2D", "inbound_nodes": [[["mixed4", 0, 0, {}]]], "name": "conv2d_45"}, {"config": {"gamma_regularizer": null, "center": true, "scale": false, "name": "batch_normalization_45", "beta_initializer": {"config": {}, "class_name": "Zeros"}, "momentum": 0.99, "moving_mean_initializer": {"config": {}, "class_name": "Zeros"}, "beta_constraint": null, "gamma_constraint": null, "trainable": true, "axis": 3, "moving_variance_initializer": {"config": {}, "class_name": "Ones"}, "beta_regularizer": null, "epsilon": 0.001, "gamma_initializer": {"config": {}, "class_name": "Ones"}}, "class_name": "BatchNormalization", "inbound_nodes": [[["conv2d_45", 0, 0, {}]]], "name": "batch_normalization_45"}, {"config": {"trainable": true, "name": "activation_45", "activation": "relu"}, "class_name": "Activation", "inbound_nodes": [[["batch_normalization_45", 0, 0, {}]]], "name": "activation_45"}, {"config": {"use_bias": false, "name": "conv2d_46", "bias_constraint": null, "strides": [1, 1], "padding": "same", "activation": "linear", "kernel_constraint": null, "activity_regularizer": null, "trainable": true, "kernel_initializer": {"config": {"scale": 1.0, "distribution": "uniform", "mode": "fan_avg", "seed": null}, "class_name": "VarianceScaling"}, "kernel_size": [7, 1], "dilation_rate": [1, 1], "kernel_regularizer": null, "bias_regularizer": null, "filters": 160, "data_format": "channels_last", "bias_initializer": {"config": {}, "class_name": "Zeros"}}, "class_name": "Conv2D", "inbound_nodes": [[["activation_45", 0, 0, {}]]], "name": "conv2d_46"}, {"config": {"gamma_regularizer": null, "center": true, "scale": false, "name": "batch_normalization_46", "beta_initializer": {"config": {}, "class_name": "Zeros"}, "momentum": 0.99, "moving_mean_initializer": {"config": {}, "class_name": "Zeros"}, "beta_constraint": null, "gamma_constraint": null, "trainable": true, "axis": 3, "moving_variance_initializer": {"config": {}, "class_name": "Ones"}, "beta_regularizer": null, "epsilon": 0.001, "gamma_initializer": {"config": {}, "class_name": "Ones"}}, "class_name": "BatchNormalization", "inbound_nodes": [[["conv2d_46", 0, 0, {}]]], "name": "batch_normalization_46"}, {"config": {"trainable": true, "name": "activation_46", "activation": "relu"}, "class_name": "Activation", "inbound_nodes": [[["batch_normalization_46", 0, 0, {}]]], "name": "activation_46"}, {"config": {"use_bias": false, "name": "conv2d_42", "bias_constraint": null, "strides": [1, 1], "padding": "same", "activation": "linear", "kernel_constraint": null, "activity_regularizer": null, "trainable": true, "kernel_initializer": {"config": {"scale": 1.0, "distribution": "uniform", "mode": "fan_avg", "seed": null}, "class_name": "VarianceScaling"}, "kernel_size": [1, 1], "dilation_rate": [1, 1], "kernel_regularizer": null, "bias_regularizer": null, "filters": 160, "data_format": "channels_last", "bias_initializer": {"config": {}, "class_name": "Zeros"}}, "class_name": "Conv2D", "inbound_nodes": [[["mixed4", 0, 0, {}]]], "name": "conv2d_42"}, {"config": {"use_bias": false, "name": "conv2d_47", "bias_constraint": null, "strides": [1, 1], "padding": "same", "activation": "linear", "kernel_constraint": null, "activity_regularizer": null, "trainable": true, "kernel_initializer": {"config": {"scale": 1.0, "distribution": "uniform", "mode": "fan_avg", "seed": null}, "class_name": "VarianceScaling"}, "kernel_size": [1, 7], "dilation_rate": [1, 1], "kernel_regularizer": null, "bias_regularizer": null, "filters": 160, "data_format": "channels_last", "bias_initializer": {"config": {}, "class_name": "Zeros"}}, "class_name": "Conv2D", "inbound_nodes": [[["activation_46", 0, 0, {}]]], "name": "conv2d_47"}, {"config": {"gamma_regularizer": null, "center": true, "scale": false, "name": "batch_normalization_42", "beta_initializer": {"config": {}, "class_name": "Zeros"}, "momentum": 0.99, "moving_mean_initializer": {"config": {}, "class_name": "Zeros"}, "beta_constraint": null, "gamma_constraint": null, "trainable": true, "axis": 3, "moving_variance_initializer": {"config": {}, "class_name": "Ones"}, "beta_regularizer": null, "epsilon": 0.001, "gamma_initializer": {"config": {}, "class_name": "Ones"}}, "class_name": "BatchNormalization", "inbound_nodes": [[["conv2d_42", 0, 0, {}]]], "name": "batch_normalization_42"}, {"config": {"gamma_regularizer": null, "center": true, "scale": false, "name": "batch_normalization_47", "beta_initializer": {"config": {}, "class_name": "Zeros"}, "momentum": 0.99, "moving_mean_initializer": {"config": {}, "class_name": "Zeros"}, "beta_constraint": null, "gamma_constraint": null, "trainable": true, "axis": 3, "moving_variance_initializer": {"config": {}, "class_name": "Ones"}, "beta_regularizer": null, "epsilon": 0.001, "gamma_initializer": {"config": {}, "class_name": "Ones"}}, "class_name": "BatchNormalization", "inbound_nodes": [[["conv2d_47", 0, 0, {}]]], "name": "batch_normalization_47"}, {"config": {"trainable": true, "name": "activation_42", "activation": "relu"}, "class_name": "Activation", "inbound_nodes": [[["batch_normalization_42", 0, 0, {}]]], "name": "activation_42"}, {"config": {"trainable": true, "name": "activation_47", "activation": "relu"}, "class_name": "Activation", "inbound_nodes": [[["batch_normalization_47", 0, 0, {}]]], "name": "activation_47"}, {"config": {"use_bias": false, "name": "conv2d_43", "bias_constraint": null, "strides": [1, 1], "padding": "same", "activation": "linear", "kernel_constraint": null, "activity_regularizer": null, "trainable": true, "kernel_initializer": {"config": {"scale": 1.0, "distribution": "uniform", "mode": "fan_avg", "seed": null}, "class_name": "VarianceScaling"}, "kernel_size": [1, 7], "dilation_rate": [1, 1], "kernel_regularizer": null, "bias_regularizer": null, "filters": 160, "data_format": "channels_last", "bias_initializer": {"config": {}, "class_name": "Zeros"}}, "class_name": "Conv2D", "inbound_nodes": [[["activation_42", 0, 0, {}]]], "name": "conv2d_43"}, {"config": {"use_bias": false, "name": "conv2d_48", "bias_constraint": null, "strides": [1, 1], "padding": "same", "activation": "linear", "kernel_constraint": null, "activity_regularizer": null, "trainable": true, "kernel_initializer": {"config": {"scale": 1.0, "distribution": "uniform", "mode": "fan_avg", "seed": null}, "class_name": "VarianceScaling"}, "kernel_size": [7, 1], "dilation_rate": [1, 1], "kernel_regularizer": null, "bias_regularizer": null, "filters": 160, "data_format": "channels_last", "bias_initializer": {"config": {}, "class_name": "Zeros"}}, "class_name": "Conv2D", "inbound_nodes": [[["activation_47", 0, 0, {}]]], "name": "conv2d_48"}, {"config": {"gamma_regularizer": null, "center": true, "scale": false, "name": "batch_normalization_43", "beta_initializer": {"config": {}, "class_name": "Zeros"}, "momentum": 0.99, "moving_mean_initializer": {"config": {}, "class_name": "Zeros"}, "beta_constraint": null, "gamma_constraint": null, "trainable": true, "axis": 3, "moving_variance_initializer": {"config": {}, "class_name": "Ones"}, "beta_regularizer": null, "epsilon": 0.001, "gamma_initializer": {"config": {}, "class_name": "Ones"}}, "class_name": "BatchNormalization", "inbound_nodes": [[["conv2d_43", 0, 0, {}]]], "name": "batch_normalization_43"}, {"config": {"gamma_regularizer": null, "center": true, "scale": false, "name": "batch_normalization_48", "beta_initializer": {"config": {}, "class_name": "Zeros"}, "momentum": 0.99, "moving_mean_initializer": {"config": {}, "class_name": "Zeros"}, "beta_constraint": null, "gamma_constraint": null, "trainable": true, "axis": 3, "moving_variance_initializer": {"config": {}, "class_name": "Ones"}, "beta_regularizer": null, "epsilon": 0.001, "gamma_initializer": {"config": {}, "class_name": "Ones"}}, "class_name": "BatchNormalization", "inbound_nodes": [[["conv2d_48", 0, 0, {}]]], "name": "batch_normalization_48"}, {"config": {"trainable": true, "name": "activation_43", "activation": "relu"}, "class_name": "Activation", "inbound_nodes": [[["batch_normalization_43", 0, 0, {}]]], "name": "activation_43"}, {"config": {"trainable": true, "name": "activation_48", "activation": "relu"}, "class_name": "Activation", "inbound_nodes": [[["batch_normalization_48", 0, 0, {}]]], "name": "activation_48"}, {"config": {"strides": [1, 1], "name": "average_pooling2d_5", "pool_size": [3, 3], "padding": "same", "data_format": "channels_last", "trainable": true}, "class_name": "AveragePooling2D", "inbound_nodes": [[["mixed4", 0, 0, {}]]], "name": "average_pooling2d_5"}, {"config": {"use_bias": false, "name": "conv2d_41", "bias_constraint": null, "strides": [1, 1], "padding": "same", "activation": "linear", "kernel_constraint": null, "activity_regularizer": null, "trainable": true, "kernel_initializer": {"config": {"scale": 1.0, "distribution": "uniform", "mode": "fan_avg", "seed": null}, "class_name": "VarianceScaling"}, "kernel_size": [1, 1], "dilation_rate": [1, 1], "kernel_regularizer": null, "bias_regularizer": null, "filters": 192, "data_format": "channels_last", "bias_initializer": {"config": {}, "class_name": "Zeros"}}, "class_name": "Conv2D", "inbound_nodes": [[["mixed4", 0, 0, {}]]], "name": "conv2d_41"}, {"config": {"use_bias": false, "name": "conv2d_44", "bias_constraint": null, "strides": [1, 1], "padding": "same", "activation": "linear", "kernel_constraint": null, "activity_regularizer": null, "trainable": true, "kernel_initializer": {"config": {"scale": 1.0, "distribution": "uniform", "mode": "fan_avg", "seed": null}, "class_name": "VarianceScaling"}, "kernel_size": [7, 1], "dilation_rate": [1, 1], "kernel_regularizer": null, "bias_regularizer": null, "filters": 192, "data_format": "channels_last", "bias_initializer": {"config": {}, "class_name": "Zeros"}}, "class_name": "Conv2D", "inbound_nodes": [[["activation_43", 0, 0, {}]]], "name": "conv2d_44"}, {"config": {"use_bias": false, "name": "conv2d_49", "bias_constraint": null, "strides": [1, 1], "padding": "same", "activation": "linear", "kernel_constraint": null, "activity_regularizer": null, "trainable": true, "kernel_initializer": {"config": {"scale": 1.0, "distribution": "uniform", "mode": "fan_avg", "seed": null}, "class_name": "VarianceScaling"}, "kernel_size": [1, 7], "dilation_rate": [1, 1], "kernel_regularizer": null, "bias_regularizer": null, "filters": 192, "data_format": "channels_last", "bias_initializer": {"config": {}, "class_name": "Zeros"}}, "class_name": "Conv2D", "inbound_nodes": [[["activation_48", 0, 0, {}]]], "name": "conv2d_49"}, {"config": {"use_bias": false, "name": "conv2d_50", "bias_constraint": null, "strides": [1, 1], "padding": "same", "activation": "linear", "kernel_constraint": null, "activity_regularizer": null, "trainable": true, "kernel_initializer": {"config": {"scale": 1.0, "distribution": "uniform", "mode": "fan_avg", "seed": null}, "class_name": "VarianceScaling"}, "kernel_size": [1, 1], "dilation_rate": [1, 1], "kernel_regularizer": null, "bias_regularizer": null, "filters": 192, "data_format": "channels_last", "bias_initializer": {"config": {}, "class_name": "Zeros"}}, "class_name": "Conv2D", "inbound_nodes": [[["average_pooling2d_5", 0, 0, {}]]], "name": "conv2d_50"}, {"config": {"gamma_regularizer": null, "center": true, "scale": false, "name": "batch_normalization_41", "beta_initializer": {"config": {}, "class_name": "Zeros"}, "momentum": 0.99, "moving_mean_initializer": {"config": {}, "class_name": "Zeros"}, "beta_constraint": null, "gamma_constraint": null, "trainable": true, "axis": 3, "moving_variance_initializer": {"config": {}, "class_name": "Ones"}, "beta_regularizer": null, "epsilon": 0.001, "gamma_initializer": {"config": {}, "class_name": "Ones"}}, "class_name": "BatchNormalization", "inbound_nodes": [[["conv2d_41", 0, 0, {}]]], "name": "batch_normalization_41"}, {"config": {"gamma_regularizer": null, "center": true, "scale": false, "name": "batch_normalization_44", "beta_initializer": {"config": {}, "class_name": "Zeros"}, "momentum": 0.99, "moving_mean_initializer": {"config": {}, "class_name": "Zeros"}, "beta_constraint": null, "gamma_constraint": null, "trainable": true, "axis": 3, "moving_variance_initializer": {"config": {}, "class_name": "Ones"}, "beta_regularizer": null, "epsilon": 0.001, "gamma_initializer": {"config": {}, "class_name": "Ones"}}, "class_name": "BatchNormalization", "inbound_nodes": [[["conv2d_44", 0, 0, {}]]], "name": "batch_normalization_44"}, {"config": {"gamma_regularizer": null, "center": true, "scale": false, "name": "batch_normalization_49", "beta_initializer": {"config": {}, "class_name": "Zeros"}, "momentum": 0.99, "moving_mean_initializer": {"config": {}, "class_name": "Zeros"}, "beta_constraint": null, "gamma_constraint": null, "trainable": true, "axis": 3, "moving_variance_initializer": {"config": {}, "class_name": "Ones"}, "beta_regularizer": null, "epsilon": 0.001, "gamma_initializer": {"config": {}, "class_name": "Ones"}}, "class_name": "BatchNormalization", "inbound_nodes": [[["conv2d_49", 0, 0, {}]]], "name": "batch_normalization_49"}, {"config": {"gamma_regularizer": null, "center": true, "scale": false, "name": "batch_normalization_50", "beta_initializer": {"config": {}, "class_name": "Zeros"}, "momentum": 0.99, "moving_mean_initializer": {"config": {}, "class_name": "Zeros"}, "beta_constraint": null, "gamma_constraint": null, "trainable": true, "axis": 3, "moving_variance_initializer": {"config": {}, "class_name": "Ones"}, "beta_regularizer": null, "epsilon": 0.001, "gamma_initializer": {"config": {}, "class_name": "Ones"}}, "class_name": "BatchNormalization", "inbound_nodes": [[["conv2d_50", 0, 0, {}]]], "name": "batch_normalization_50"}, {"config": {"trainable": true, "name": "activation_41", "activation": "relu"}, "class_name": "Activation", "inbound_nodes": [[["batch_normalization_41", 0, 0, {}]]], "name": "activation_41"}, {"config": {"trainable": true, "name": "activation_44", "activation": "relu"}, "class_name": "Activation", "inbound_nodes": [[["batch_normalization_44", 0, 0, {}]]], "name": "activation_44"}, {"config": {"trainable": true, "name": "activation_49", "activation": "relu"}, "class_name": "Activation", "inbound_nodes": [[["batch_normalization_49", 0, 0, {}]]], "name": "activation_49"}, {"config": {"trainable": true, "name": "activation_50", "activation": "relu"}, "class_name": "Activation", "inbound_nodes": [[["batch_normalization_50", 0, 0, {}]]], "name": "activation_50"}, {"config": {"axis": 3, "trainable": true, "name": "mixed5"}, "class_name": "Concatenate", "inbound_nodes": [[["activation_41", 0, 0, {}], ["activation_44", 0, 0, {}], ["activation_49", 0, 0, {}], ["activation_50", 0, 0, {}]]], "name": "mixed5"}, {"config": {"use_bias": false, "name": "conv2d_55", "bias_constraint": null, "strides": [1, 1], "padding": "same", "activation": "linear", "kernel_constraint": null, "activity_regularizer": null, "trainable": true, "kernel_initializer": {"config": {"scale": 1.0, "distribution": "uniform", "mode": "fan_avg", "seed": null}, "class_name": "VarianceScaling"}, "kernel_size": [1, 1], "dilation_rate": [1, 1], "kernel_regularizer": null, "bias_regularizer": null, "filters": 160, "data_format": "channels_last", "bias_initializer": {"config": {}, "class_name": "Zeros"}}, "class_name": "Conv2D", "inbound_nodes": [[["mixed5", 0, 0, {}]]], "name": "conv2d_55"}, {"config": {"gamma_regularizer": null, "center": true, "scale": false, "name": "batch_normalization_55", "beta_initializer": {"config": {}, "class_name": "Zeros"}, "momentum": 0.99, "moving_mean_initializer": {"config": {}, "class_name": "Zeros"}, "beta_constraint": null, "gamma_constraint": null, "trainable": true, "axis": 3, "moving_variance_initializer": {"config": {}, "class_name": "Ones"}, "beta_regularizer": null, "epsilon": 0.001, "gamma_initializer": {"config": {}, "class_name": "Ones"}}, "class_name": "BatchNormalization", "inbound_nodes": [[["conv2d_55", 0, 0, {}]]], "name": "batch_normalization_55"}, {"config": {"trainable": true, "name": "activation_55", "activation": "relu"}, "class_name": "Activation", "inbound_nodes": [[["batch_normalization_55", 0, 0, {}]]], "name": "activation_55"}, {"config": {"use_bias": false, "name": "conv2d_56", "bias_constraint": null, "strides": [1, 1], "padding": "same", "activation": "linear", "kernel_constraint": null, "activity_regularizer": null, "trainable": true, "kernel_initializer": {"config": {"scale": 1.0, "distribution": "uniform", "mode": "fan_avg", "seed": null}, "class_name": "VarianceScaling"}, "kernel_size": [7, 1], "dilation_rate": [1, 1], "kernel_regularizer": null, "bias_regularizer": null, "filters": 160, "data_format": "channels_last", "bias_initializer": {"config": {}, "class_name": "Zeros"}}, "class_name": "Conv2D", "inbound_nodes": [[["activation_55", 0, 0, {}]]], "name": "conv2d_56"}, {"config": {"gamma_regularizer": null, "center": true, "scale": false, "name": "batch_normalization_56", "beta_initializer": {"config": {}, "class_name": "Zeros"}, "momentum": 0.99, "moving_mean_initializer": {"config": {}, "class_name": "Zeros"}, "beta_constraint": null, "gamma_constraint": null, "trainable": true, "axis": 3, "moving_variance_initializer": {"config": {}, "class_name": "Ones"}, "beta_regularizer": null, "epsilon": 0.001, "gamma_initializer": {"config": {}, "class_name": "Ones"}}, "class_name": "BatchNormalization", "inbound_nodes": [[["conv2d_56", 0, 0, {}]]], "name": "batch_normalization_56"}, {"config": {"trainable": true, "name": "activation_56", "activation": "relu"}, "class_name": "Activation", "inbound_nodes": [[["batch_normalization_56", 0, 0, {}]]], "name": "activation_56"}, {"config": {"use_bias": false, "name": "conv2d_52", "bias_constraint": null, "strides": [1, 1], "padding": "same", "activation": "linear", "kernel_constraint": null, "activity_regularizer": null, "trainable": true, "kernel_initializer": {"config": {"scale": 1.0, "distribution": "uniform", "mode": "fan_avg", "seed": null}, "class_name": "VarianceScaling"}, "kernel_size": [1, 1], "dilation_rate": [1, 1], "kernel_regularizer": null, "bias_regularizer": null, "filters": 160, "data_format": "channels_last", "bias_initializer": {"config": {}, "class_name": "Zeros"}}, "class_name": "Conv2D", "inbound_nodes": [[["mixed5", 0, 0, {}]]], "name": "conv2d_52"}, {"config": {"use_bias": false, "name": "conv2d_57", "bias_constraint": null, "strides": [1, 1], "padding": "same", "activation": "linear", "kernel_constraint": null, "activity_regularizer": null, "trainable": true, "kernel_initializer": {"config": {"scale": 1.0, "distribution": "uniform", "mode": "fan_avg", "seed": null}, "class_name": "VarianceScaling"}, "kernel_size": [1, 7], "dilation_rate": [1, 1], "kernel_regularizer": null, "bias_regularizer": null, "filters": 160, "data_format": "channels_last", "bias_initializer": {"config": {}, "class_name": "Zeros"}}, "class_name": "Conv2D", "inbound_nodes": [[["activation_56", 0, 0, {}]]], "name": "conv2d_57"}, {"config": {"gamma_regularizer": null, "center": true, "scale": false, "name": "batch_normalization_52", "beta_initializer": {"config": {}, "class_name": "Zeros"}, "momentum": 0.99, "moving_mean_initializer": {"config": {}, "class_name": "Zeros"}, "beta_constraint": null, "gamma_constraint": null, "trainable": true, "axis": 3, "moving_variance_initializer": {"config": {}, "class_name": "Ones"}, "beta_regularizer": null, "epsilon": 0.001, "gamma_initializer": {"config": {}, "class_name": "Ones"}}, "class_name": "BatchNormalization", "inbound_nodes": [[["conv2d_52", 0, 0, {}]]], "name": "batch_normalization_52"}, {"config": {"gamma_regularizer": null, "center": true, "scale": false, "name": "batch_normalization_57", "beta_initializer": {"config": {}, "class_name": "Zeros"}, "momentum": 0.99, "moving_mean_initializer": {"config": {}, "class_name": "Zeros"}, "beta_constraint": null, "gamma_constraint": null, "trainable": true, "axis": 3, "moving_variance_initializer": {"config": {}, "class_name": "Ones"}, "beta_regularizer": null, "epsilon": 0.001, "gamma_initializer": {"config": {}, "class_name": "Ones"}}, "class_name": "BatchNormalization", "inbound_nodes": [[["conv2d_57", 0, 0, {}]]], "name": "batch_normalization_57"}, {"config": {"trainable": true, "name": "activation_52", "activation": "relu"}, "class_name": "Activation", "inbound_nodes": [[["batch_normalization_52", 0, 0, {}]]], "name": "activation_52"}, {"config": {"trainable": true, "name": "activation_57", "activation": "relu"}, "class_name": "Activation", "inbound_nodes": [[["batch_normalization_57", 0, 0, {}]]], "name": "activation_57"}, {"config": {"use_bias": false, "name": "conv2d_53", "bias_constraint": null, "strides": [1, 1], "padding": "same", "activation": "linear", "kernel_constraint": null, "activity_regularizer": null, "trainable": true, "kernel_initializer": {"config": {"scale": 1.0, "distribution": "uniform", "mode": "fan_avg", "seed": null}, "class_name": "VarianceScaling"}, "kernel_size": [1, 7], "dilation_rate": [1, 1], "kernel_regularizer": null, "bias_regularizer": null, "filters": 160, "data_format": "channels_last", "bias_initializer": {"config": {}, "class_name": "Zeros"}}, "class_name": "Conv2D", "inbound_nodes": [[["activation_52", 0, 0, {}]]], "name": "conv2d_53"}, {"config": {"use_bias": false, "name": "conv2d_58", "bias_constraint": null, "strides": [1, 1], "padding": "same", "activation": "linear", "kernel_constraint": null, "activity_regularizer": null, "trainable": true, "kernel_initializer": {"config": {"scale": 1.0, "distribution": "uniform", "mode": "fan_avg", "seed": null}, "class_name": "VarianceScaling"}, "kernel_size": [7, 1], "dilation_rate": [1, 1], "kernel_regularizer": null, "bias_regularizer": null, "filters": 160, "data_format": "channels_last", "bias_initializer": {"config": {}, "class_name": "Zeros"}}, "class_name": "Conv2D", "inbound_nodes": [[["activation_57", 0, 0, {}]]], "name": "conv2d_58"}, {"config": {"gamma_regularizer": null, "center": true, "scale": false, "name": "batch_normalization_53", "beta_initializer": {"config": {}, "class_name": "Zeros"}, "momentum": 0.99, "moving_mean_initializer": {"config": {}, "class_name": "Zeros"}, "beta_constraint": null, "gamma_constraint": null, "trainable": true, "axis": 3, "moving_variance_initializer": {"config": {}, "class_name": "Ones"}, "beta_regularizer": null, "epsilon": 0.001, "gamma_initializer": {"config": {}, "class_name": "Ones"}}, "class_name": "BatchNormalization", "inbound_nodes": [[["conv2d_53", 0, 0, {}]]], "name": "batch_normalization_53"}, {"config": {"gamma_regularizer": null, "center": true, "scale": false, "name": "batch_normalization_58", "beta_initializer": {"config": {}, "class_name": "Zeros"}, "momentum": 0.99, "moving_mean_initializer": {"config": {}, "class_name": "Zeros"}, "beta_constraint": null, "gamma_constraint": null, "trainable": true, "axis": 3, "moving_variance_initializer": {"config": {}, "class_name": "Ones"}, "beta_regularizer": null, "epsilon": 0.001, "gamma_initializer": {"config": {}, "class_name": "Ones"}}, "class_name": "BatchNormalization", "inbound_nodes": [[["conv2d_58", 0, 0, {}]]], "name": "batch_normalization_58"}, {"config": {"trainable": true, "name": "activation_53", "activation": "relu"}, "class_name": "Activation", "inbound_nodes": [[["batch_normalization_53", 0, 0, {}]]], "name": "activation_53"}, {"config": {"trainable": true, "name": "activation_58", "activation": "relu"}, "class_name": "Activation", "inbound_nodes": [[["batch_normalization_58", 0, 0, {}]]], "name": "activation_58"}, {"config": {"strides": [1, 1], "name": "average_pooling2d_6", "pool_size": [3, 3], "padding": "same", "data_format": "channels_last", "trainable": true}, "class_name": "AveragePooling2D", "inbound_nodes": [[["mixed5", 0, 0, {}]]], "name": "average_pooling2d_6"}, {"config": {"use_bias": false, "name": "conv2d_51", "bias_constraint": null, "strides": [1, 1], "padding": "same", "activation": "linear", "kernel_constraint": null, "activity_regularizer": null, "trainable": true, "kernel_initializer": {"config": {"scale": 1.0, "distribution": "uniform", "mode": "fan_avg", "seed": null}, "class_name": "VarianceScaling"}, "kernel_size": [1, 1], "dilation_rate": [1, 1], "kernel_regularizer": null, "bias_regularizer": null, "filters": 192, "data_format": "channels_last", "bias_initializer": {"config": {}, "class_name": "Zeros"}}, "class_name": "Conv2D", "inbound_nodes": [[["mixed5", 0, 0, {}]]], "name": "conv2d_51"}, {"config": {"use_bias": false, "name": "conv2d_54", "bias_constraint": null, "strides": [1, 1], "padding": "same", "activation": "linear", "kernel_constraint": null, "activity_regularizer": null, "trainable": true, "kernel_initializer": {"config": {"scale": 1.0, "distribution": "uniform", "mode": "fan_avg", "seed": null}, "class_name": "VarianceScaling"}, "kernel_size": [7, 1], "dilation_rate": [1, 1], "kernel_regularizer": null, "bias_regularizer": null, "filters": 192, "data_format": "channels_last", "bias_initializer": {"config": {}, "class_name": "Zeros"}}, "class_name": "Conv2D", "inbound_nodes": [[["activation_53", 0, 0, {}]]], "name": "conv2d_54"}, {"config": {"use_bias": false, "name": "conv2d_59", "bias_constraint": null, "strides": [1, 1], "padding": "same", "activation": "linear", "kernel_constraint": null, "activity_regularizer": null, "trainable": true, "kernel_initializer": {"config": {"scale": 1.0, "distribution": "uniform", "mode": "fan_avg", "seed": null}, "class_name": "VarianceScaling"}, "kernel_size": [1, 7], "dilation_rate": [1, 1], "kernel_regularizer": null, "bias_regularizer": null, "filters": 192, "data_format": "channels_last", "bias_initializer": {"config": {}, "class_name": "Zeros"}}, "class_name": "Conv2D", "inbound_nodes": [[["activation_58", 0, 0, {}]]], "name": "conv2d_59"}, {"config": {"use_bias": false, "name": "conv2d_60", "bias_constraint": null, "strides": [1, 1], "padding": "same", "activation": "linear", "kernel_constraint": null, "activity_regularizer": null, "trainable": true, "kernel_initializer": {"config": {"scale": 1.0, "distribution": "uniform", "mode": "fan_avg", "seed": null}, "class_name": "VarianceScaling"}, "kernel_size": [1, 1], "dilation_rate": [1, 1], "kernel_regularizer": null, "bias_regularizer": null, "filters": 192, "data_format": "channels_last", "bias_initializer": {"config": {}, "class_name": "Zeros"}}, "class_name": "Conv2D", "inbound_nodes": [[["average_pooling2d_6", 0, 0, {}]]], "name": "conv2d_60"}, {"config": {"gamma_regularizer": null, "center": true, "scale": false, "name": "batch_normalization_51", "beta_initializer": {"config": {}, "class_name": "Zeros"}, "momentum": 0.99, "moving_mean_initializer": {"config": {}, "class_name": "Zeros"}, "beta_constraint": null, "gamma_constraint": null, "trainable": true, "axis": 3, "moving_variance_initializer": {"config": {}, "class_name": "Ones"}, "beta_regularizer": null, "epsilon": 0.001, "gamma_initializer": {"config": {}, "class_name": "Ones"}}, "class_name": "BatchNormalization", "inbound_nodes": [[["conv2d_51", 0, 0, {}]]], "name": "batch_normalization_51"}, {"config": {"gamma_regularizer": null, "center": true, "scale": false, "name": "batch_normalization_54", "beta_initializer": {"config": {}, "class_name": "Zeros"}, "momentum": 0.99, "moving_mean_initializer": {"config": {}, "class_name": "Zeros"}, "beta_constraint": null, "gamma_constraint": null, "trainable": true, "axis": 3, "moving_variance_initializer": {"config": {}, "class_name": "Ones"}, "beta_regularizer": null, "epsilon": 0.001, "gamma_initializer": {"config": {}, "class_name": "Ones"}}, "class_name": "BatchNormalization", "inbound_nodes": [[["conv2d_54", 0, 0, {}]]], "name": "batch_normalization_54"}, {"config": {"gamma_regularizer": null, "center": true, "scale": false, "name": "batch_normalization_59", "beta_initializer": {"config": {}, "class_name": "Zeros"}, "momentum": 0.99, "moving_mean_initializer": {"config": {}, "class_name": "Zeros"}, "beta_constraint": null, "gamma_constraint": null, "trainable": true, "axis": 3, "moving_variance_initializer": {"config": {}, "class_name": "Ones"}, "beta_regularizer": null, "epsilon": 0.001, "gamma_initializer": {"config": {}, "class_name": "Ones"}}, "class_name": "BatchNormalization", "inbound_nodes": [[["conv2d_59", 0, 0, {}]]], "name": "batch_normalization_59"}, {"config": {"gamma_regularizer": null, "center": true, "scale": false, "name": "batch_normalization_60", "beta_initializer": {"config": {}, "class_name": "Zeros"}, "momentum": 0.99, "moving_mean_initializer": {"config": {}, "class_name": "Zeros"}, "beta_constraint": null, "gamma_constraint": null, "trainable": true, "axis": 3, "moving_variance_initializer": {"config": {}, "class_name": "Ones"}, "beta_regularizer": null, "epsilon": 0.001, "gamma_initializer": {"config": {}, "class_name": "Ones"}}, "class_name": "BatchNormalization", "inbound_nodes": [[["conv2d_60", 0, 0, {}]]], "name": "batch_normalization_60"}, {"config": {"trainable": true, "name": "activation_51", "activation": "relu"}, "class_name": "Activation", "inbound_nodes": [[["batch_normalization_51", 0, 0, {}]]], "name": "activation_51"}, {"config": {"trainable": true, "name": "activation_54", "activation": "relu"}, "class_name": "Activation", "inbound_nodes": [[["batch_normalization_54", 0, 0, {}]]], "name": "activation_54"}, {"config": {"trainable": true, "name": "activation_59", "activation": "relu"}, "class_name": "Activation", "inbound_nodes": [[["batch_normalization_59", 0, 0, {}]]], "name": "activation_59"}, {"config": {"trainable": true, "name": "activation_60", "activation": "relu"}, "class_name": "Activation", "inbound_nodes": [[["batch_normalization_60", 0, 0, {}]]], "name": "activation_60"}, {"config": {"axis": 3, "trainable": true, "name": "mixed6"}, "class_name": "Concatenate", "inbound_nodes": [[["activation_51", 0, 0, {}], ["activation_54", 0, 0, {}], ["activation_59", 0, 0, {}], ["activation_60", 0, 0, {}]]], "name": "mixed6"}, {"config": {"use_bias": false, "name": "conv2d_65", "bias_constraint": null, "strides": [1, 1], "padding": "same", "activation": "linear", "kernel_constraint": null, "activity_regularizer": null, "trainable": true, "kernel_initializer": {"config": {"scale": 1.0, "distribution": "uniform", "mode": "fan_avg", "seed": null}, "class_name": "VarianceScaling"}, "kernel_size": [1, 1], "dilation_rate": [1, 1], "kernel_regularizer": null, "bias_regularizer": null, "filters": 192, "data_format": "channels_last", "bias_initializer": {"config": {}, "class_name": "Zeros"}}, "class_name": "Conv2D", "inbound_nodes": [[["mixed6", 0, 0, {}]]], "name": "conv2d_65"}, {"config": {"gamma_regularizer": null, "center": true, "scale": false, "name": "batch_normalization_65", "beta_initializer": {"config": {}, "class_name": "Zeros"}, "momentum": 0.99, "moving_mean_initializer": {"config": {}, "class_name": "Zeros"}, "beta_constraint": null, "gamma_constraint": null, "trainable": true, "axis": 3, "moving_variance_initializer": {"config": {}, "class_name": "Ones"}, "beta_regularizer": null, "epsilon": 0.001, "gamma_initializer": {"config": {}, "class_name": "Ones"}}, "class_name": "BatchNormalization", "inbound_nodes": [[["conv2d_65", 0, 0, {}]]], "name": "batch_normalization_65"}, {"config": {"trainable": true, "name": "activation_65", "activation": "relu"}, "class_name": "Activation", "inbound_nodes": [[["batch_normalization_65", 0, 0, {}]]], "name": "activation_65"}, {"config": {"use_bias": false, "name": "conv2d_66", "bias_constraint": null, "strides": [1, 1], "padding": "same", "activation": "linear", "kernel_constraint": null, "activity_regularizer": null, "trainable": true, "kernel_initializer": {"config": {"scale": 1.0, "distribution": "uniform", "mode": "fan_avg", "seed": null}, "class_name": "VarianceScaling"}, "kernel_size": [7, 1], "dilation_rate": [1, 1], "kernel_regularizer": null, "bias_regularizer": null, "filters": 192, "data_format": "channels_last", "bias_initializer": {"config": {}, "class_name": "Zeros"}}, "class_name": "Conv2D", "inbound_nodes": [[["activation_65", 0, 0, {}]]], "name": "conv2d_66"}, {"config": {"gamma_regularizer": null, "center": true, "scale": false, "name": "batch_normalization_66", "beta_initializer": {"config": {}, "class_name": "Zeros"}, "momentum": 0.99, "moving_mean_initializer": {"config": {}, "class_name": "Zeros"}, "beta_constraint": null, "gamma_constraint": null, "trainable": true, "axis": 3, "moving_variance_initializer": {"config": {}, "class_name": "Ones"}, "beta_regularizer": null, "epsilon": 0.001, "gamma_initializer": {"config": {}, "class_name": "Ones"}}, "class_name": "BatchNormalization", "inbound_nodes": [[["conv2d_66", 0, 0, {}]]], "name": "batch_normalization_66"}, {"config": {"trainable": true, "name": "activation_66", "activation": "relu"}, "class_name": "Activation", "inbound_nodes": [[["batch_normalization_66", 0, 0, {}]]], "name": "activation_66"}, {"config": {"use_bias": false, "name": "conv2d_62", "bias_constraint": null, "strides": [1, 1], "padding": "same", "activation": "linear", "kernel_constraint": null, "activity_regularizer": null, "trainable": true, "kernel_initializer": {"config": {"scale": 1.0, "distribution": "uniform", "mode": "fan_avg", "seed": null}, "class_name": "VarianceScaling"}, "kernel_size": [1, 1], "dilation_rate": [1, 1], "kernel_regularizer": null, "bias_regularizer": null, "filters": 192, "data_format": "channels_last", "bias_initializer": {"config": {}, "class_name": "Zeros"}}, "class_name": "Conv2D", "inbound_nodes": [[["mixed6", 0, 0, {}]]], "name": "conv2d_62"}, {"config": {"use_bias": false, "name": "conv2d_67", "bias_constraint": null, "strides": [1, 1], "padding": "same", "activation": "linear", "kernel_constraint": null, "activity_regularizer": null, "trainable": true, "kernel_initializer": {"config": {"scale": 1.0, "distribution": "uniform", "mode": "fan_avg", "seed": null}, "class_name": "VarianceScaling"}, "kernel_size": [1, 7], "dilation_rate": [1, 1], "kernel_regularizer": null, "bias_regularizer": null, "filters": 192, "data_format": "channels_last", "bias_initializer": {"config": {}, "class_name": "Zeros"}}, "class_name": "Conv2D", "inbound_nodes": [[["activation_66", 0, 0, {}]]], "name": "conv2d_67"}, {"config": {"gamma_regularizer": null, "center": true, "scale": false, "name": "batch_normalization_62", "beta_initializer": {"config": {}, "class_name": "Zeros"}, "momentum": 0.99, "moving_mean_initializer": {"config": {}, "class_name": "Zeros"}, "beta_constraint": null, "gamma_constraint": null, "trainable": true, "axis": 3, "moving_variance_initializer": {"config": {}, "class_name": "Ones"}, "beta_regularizer": null, "epsilon": 0.001, "gamma_initializer": {"config": {}, "class_name": "Ones"}}, "class_name": "BatchNormalization", "inbound_nodes": [[["conv2d_62", 0, 0, {}]]], "name": "batch_normalization_62"}, {"config": {"gamma_regularizer": null, "center": true, "scale": false, "name": "batch_normalization_67", "beta_initializer": {"config": {}, "class_name": "Zeros"}, "momentum": 0.99, "moving_mean_initializer": {"config": {}, "class_name": "Zeros"}, "beta_constraint": null, "gamma_constraint": null, "trainable": true, "axis": 3, "moving_variance_initializer": {"config": {}, "class_name": "Ones"}, "beta_regularizer": null, "epsilon": 0.001, "gamma_initializer": {"config": {}, "class_name": "Ones"}}, "class_name": "BatchNormalization", "inbound_nodes": [[["conv2d_67", 0, 0, {}]]], "name": "batch_normalization_67"}, {"config": {"trainable": true, "name": "activation_62", "activation": "relu"}, "class_name": "Activation", "inbound_nodes": [[["batch_normalization_62", 0, 0, {}]]], "name": "activation_62"}, {"config": {"trainable": true, "name": "activation_67", "activation": "relu"}, "class_name": "Activation", "inbound_nodes": [[["batch_normalization_67", 0, 0, {}]]], "name": "activation_67"}, {"config": {"use_bias": false, "name": "conv2d_63", "bias_constraint": null, "strides": [1, 1], "padding": "same", "activation": "linear", "kernel_constraint": null, "activity_regularizer": null, "trainable": true, "kernel_initializer": {"config": {"scale": 1.0, "distribution": "uniform", "mode": "fan_avg", "seed": null}, "class_name": "VarianceScaling"}, "kernel_size": [1, 7], "dilation_rate": [1, 1], "kernel_regularizer": null, "bias_regularizer": null, "filters": 192, "data_format": "channels_last", "bias_initializer": {"config": {}, "class_name": "Zeros"}}, "class_name": "Conv2D", "inbound_nodes": [[["activation_62", 0, 0, {}]]], "name": "conv2d_63"}, {"config": {"use_bias": false, "name": "conv2d_68", "bias_constraint": null, "strides": [1, 1], "padding": "same", "activation": "linear", "kernel_constraint": null, "activity_regularizer": null, "trainable": true, "kernel_initializer": {"config": {"scale": 1.0, "distribution": "uniform", "mode": "fan_avg", "seed": null}, "class_name": "VarianceScaling"}, "kernel_size": [7, 1], "dilation_rate": [1, 1], "kernel_regularizer": null, "bias_regularizer": null, "filters": 192, "data_format": "channels_last", "bias_initializer": {"config": {}, "class_name": "Zeros"}}, "class_name": "Conv2D", "inbound_nodes": [[["activation_67", 0, 0, {}]]], "name": "conv2d_68"}, {"config": {"gamma_regularizer": null, "center": true, "scale": false, "name": "batch_normalization_63", "beta_initializer": {"config": {}, "class_name": "Zeros"}, "momentum": 0.99, "moving_mean_initializer": {"config": {}, "class_name": "Zeros"}, "beta_constraint": null, "gamma_constraint": null, "trainable": true, "axis": 3, "moving_variance_initializer": {"config": {}, "class_name": "Ones"}, "beta_regularizer": null, "epsilon": 0.001, "gamma_initializer": {"config": {}, "class_name": "Ones"}}, "class_name": "BatchNormalization", "inbound_nodes": [[["conv2d_63", 0, 0, {}]]], "name": "batch_normalization_63"}, {"config": {"gamma_regularizer": null, "center": true, "scale": false, "name": "batch_normalization_68", "beta_initializer": {"config": {}, "class_name": "Zeros"}, "momentum": 0.99, "moving_mean_initializer": {"config": {}, "class_name": "Zeros"}, "beta_constraint": null, "gamma_constraint": null, "trainable": true, "axis": 3, "moving_variance_initializer": {"config": {}, "class_name": "Ones"}, "beta_regularizer": null, "epsilon": 0.001, "gamma_initializer": {"config": {}, "class_name": "Ones"}}, "class_name": "BatchNormalization", "inbound_nodes": [[["conv2d_68", 0, 0, {}]]], "name": "batch_normalization_68"}, {"config": {"trainable": true, "name": "activation_63", "activation": "relu"}, "class_name": "Activation", "inbound_nodes": [[["batch_normalization_63", 0, 0, {}]]], "name": "activation_63"}, {"config": {"trainable": true, "name": "activation_68", "activation": "relu"}, "class_name": "Activation", "inbound_nodes": [[["batch_normalization_68", 0, 0, {}]]], "name": "activation_68"}, {"config": {"strides": [1, 1], "name": "average_pooling2d_7", "pool_size": [3, 3], "padding": "same", "data_format": "channels_last", "trainable": true}, "class_name": "AveragePooling2D", "inbound_nodes": [[["mixed6", 0, 0, {}]]], "name": "average_pooling2d_7"}, {"config": {"use_bias": false, "name": "conv2d_61", "bias_constraint": null, "strides": [1, 1], "padding": "same", "activation": "linear", "kernel_constraint": null, "activity_regularizer": null, "trainable": true, "kernel_initializer": {"config": {"scale": 1.0, "distribution": "uniform", "mode": "fan_avg", "seed": null}, "class_name": "VarianceScaling"}, "kernel_size": [1, 1], "dilation_rate": [1, 1], "kernel_regularizer": null, "bias_regularizer": null, "filters": 192, "data_format": "channels_last", "bias_initializer": {"config": {}, "class_name": "Zeros"}}, "class_name": "Conv2D", "inbound_nodes": [[["mixed6", 0, 0, {}]]], "name": "conv2d_61"}, {"config": {"use_bias": false, "name": "conv2d_64", "bias_constraint": null, "strides": [1, 1], "padding": "same", "activation": "linear", "kernel_constraint": null, "activity_regularizer": null, "trainable": true, "kernel_initializer": {"config": {"scale": 1.0, "distribution": "uniform", "mode": "fan_avg", "seed": null}, "class_name": "VarianceScaling"}, "kernel_size": [7, 1], "dilation_rate": [1, 1], "kernel_regularizer": null, "bias_regularizer": null, "filters": 192, "data_format": "channels_last", "bias_initializer": {"config": {}, "class_name": "Zeros"}}, "class_name": "Conv2D", "inbound_nodes": [[["activation_63", 0, 0, {}]]], "name": "conv2d_64"}, {"config": {"use_bias": false, "name": "conv2d_69", "bias_constraint": null, "strides": [1, 1], "padding": "same", "activation": "linear", "kernel_constraint": null, "activity_regularizer": null, "trainable": true, "kernel_initializer": {"config": {"scale": 1.0, "distribution": "uniform", "mode": "fan_avg", "seed": null}, "class_name": "VarianceScaling"}, "kernel_size": [1, 7], "dilation_rate": [1, 1], "kernel_regularizer": null, "bias_regularizer": null, "filters": 192, "data_format": "channels_last", "bias_initializer": {"config": {}, "class_name": "Zeros"}}, "class_name": "Conv2D", "inbound_nodes": [[["activation_68", 0, 0, {}]]], "name": "conv2d_69"}, {"config": {"use_bias": false, "name": "conv2d_70", "bias_constraint": null, "strides": [1, 1], "padding": "same", "activation": "linear", "kernel_constraint": null, "activity_regularizer": null, "trainable": true, "kernel_initializer": {"config": {"scale": 1.0, "distribution": "uniform", "mode": "fan_avg", "seed": null}, "class_name": "VarianceScaling"}, "kernel_size": [1, 1], "dilation_rate": [1, 1], "kernel_regularizer": null, "bias_regularizer": null, "filters": 192, "data_format": "channels_last", "bias_initializer": {"config": {}, "class_name": "Zeros"}}, "class_name": "Conv2D", "inbound_nodes": [[["average_pooling2d_7", 0, 0, {}]]], "name": "conv2d_70"}, {"config": {"gamma_regularizer": null, "center": true, "scale": false, "name": "batch_normalization_61", "beta_initializer": {"config": {}, "class_name": "Zeros"}, "momentum": 0.99, "moving_mean_initializer": {"config": {}, "class_name": "Zeros"}, "beta_constraint": null, "gamma_constraint": null, "trainable": true, "axis": 3, "moving_variance_initializer": {"config": {}, "class_name": "Ones"}, "beta_regularizer": null, "epsilon": 0.001, "gamma_initializer": {"config": {}, "class_name": "Ones"}}, "class_name": "BatchNormalization", "inbound_nodes": [[["conv2d_61", 0, 0, {}]]], "name": "batch_normalization_61"}, {"config": {"gamma_regularizer": null, "center": true, "scale": false, "name": "batch_normalization_64", "beta_initializer": {"config": {}, "class_name": "Zeros"}, "momentum": 0.99, "moving_mean_initializer": {"config": {}, "class_name": "Zeros"}, "beta_constraint": null, "gamma_constraint": null, "trainable": true, "axis": 3, "moving_variance_initializer": {"config": {}, "class_name": "Ones"}, "beta_regularizer": null, "epsilon": 0.001, "gamma_initializer": {"config": {}, "class_name": "Ones"}}, "class_name": "BatchNormalization", "inbound_nodes": [[["conv2d_64", 0, 0, {}]]], "name": "batch_normalization_64"}, {"config": {"gamma_regularizer": null, "center": true, "scale": false, "name": "batch_normalization_69", "beta_initializer": {"config": {}, "class_name": "Zeros"}, "momentum": 0.99, "moving_mean_initializer": {"config": {}, "class_name": "Zeros"}, "beta_constraint": null, "gamma_constraint": null, "trainable": true, "axis": 3, "moving_variance_initializer": {"config": {}, "class_name": "Ones"}, "beta_regularizer": null, "epsilon": 0.001, "gamma_initializer": {"config": {}, "class_name": "Ones"}}, "class_name": "BatchNormalization", "inbound_nodes": [[["conv2d_69", 0, 0, {}]]], "name": "batch_normalization_69"}, {"config": {"gamma_regularizer": null, "center": true, "scale": false, "name": "batch_normalization_70", "beta_initializer": {"config": {}, "class_name": "Zeros"}, "momentum": 0.99, "moving_mean_initializer": {"config": {}, "class_name": "Zeros"}, "beta_constraint": null, "gamma_constraint": null, "trainable": true, "axis": 3, "moving_variance_initializer": {"config": {}, "class_name": "Ones"}, "beta_regularizer": null, "epsilon": 0.001, "gamma_initializer": {"config": {}, "class_name": "Ones"}}, "class_name": "BatchNormalization", "inbound_nodes": [[["conv2d_70", 0, 0, {}]]], "name": "batch_normalization_70"}, {"config": {"trainable": true, "name": "activation_61", "activation": "relu"}, "class_name": "Activation", "inbound_nodes": [[["batch_normalization_61", 0, 0, {}]]], "name": "activation_61"}, {"config": {"trainable": true, "name": "activation_64", "activation": "relu"}, "class_name": "Activation", "inbound_nodes": [[["batch_normalization_64", 0, 0, {}]]], "name": "activation_64"}, {"config": {"trainable": true, "name": "activation_69", "activation": "relu"}, "class_name": "Activation", "inbound_nodes": [[["batch_normalization_69", 0, 0, {}]]], "name": "activation_69"}, {"config": {"trainable": true, "name": "activation_70", "activation": "relu"}, "class_name": "Activation", "inbound_nodes": [[["batch_normalization_70", 0, 0, {}]]], "name": "activation_70"}, {"config": {"axis": 3, "trainable": true, "name": "mixed7"}, "class_name": "Concatenate", "inbound_nodes": [[["activation_61", 0, 0, {}], ["activation_64", 0, 0, {}], ["activation_69", 0, 0, {}], ["activation_70", 0, 0, {}]]], "name": "mixed7"}, {"config": {"use_bias": false, "name": "conv2d_73", "bias_constraint": null, "strides": [1, 1], "padding": "same", "activation": "linear", "kernel_constraint": null, "activity_regularizer": null, "trainable": true, "kernel_initializer": {"config": {"scale": 1.0, "distribution": "uniform", "mode": "fan_avg", "seed": null}, "class_name": "VarianceScaling"}, "kernel_size": [1, 1], "dilation_rate": [1, 1], "kernel_regularizer": null, "bias_regularizer": null, "filters": 192, "data_format": "channels_last", "bias_initializer": {"config": {}, "class_name": "Zeros"}}, "class_name": "Conv2D", "inbound_nodes": [[["mixed7", 0, 0, {}]]], "name": "conv2d_73"}, {"config": {"gamma_regularizer": null, "center": true, "scale": false, "name": "batch_normalization_73", "beta_initializer": {"config": {}, "class_name": "Zeros"}, "momentum": 0.99, "moving_mean_initializer": {"config": {}, "class_name": "Zeros"}, "beta_constraint": null, "gamma_constraint": null, "trainable": true, "axis": 3, "moving_variance_initializer": {"config": {}, "class_name": "Ones"}, "beta_regularizer": null, "epsilon": 0.001, "gamma_initializer": {"config": {}, "class_name": "Ones"}}, "class_name": "BatchNormalization", "inbound_nodes": [[["conv2d_73", 0, 0, {}]]], "name": "batch_normalization_73"}, {"config": {"trainable": true, "name": "activation_73", "activation": "relu"}, "class_name": "Activation", "inbound_nodes": [[["batch_normalization_73", 0, 0, {}]]], "name": "activation_73"}, {"config": {"use_bias": false, "name": "conv2d_74", "bias_constraint": null, "strides": [1, 1], "padding": "same", "activation": "linear", "kernel_constraint": null, "activity_regularizer": null, "trainable": true, "kernel_initializer": {"config": {"scale": 1.0, "distribution": "uniform", "mode": "fan_avg", "seed": null}, "class_name": "VarianceScaling"}, "kernel_size": [1, 7], "dilation_rate": [1, 1], "kernel_regularizer": null, "bias_regularizer": null, "filters": 192, "data_format": "channels_last", "bias_initializer": {"config": {}, "class_name": "Zeros"}}, "class_name": "Conv2D", "inbound_nodes": [[["activation_73", 0, 0, {}]]], "name": "conv2d_74"}, {"config": {"gamma_regularizer": null, "center": true, "scale": false, "name": "batch_normalization_74", "beta_initializer": {"config": {}, "class_name": "Zeros"}, "momentum": 0.99, "moving_mean_initializer": {"config": {}, "class_name": "Zeros"}, "beta_constraint": null, "gamma_constraint": null, "trainable": true, "axis": 3, "moving_variance_initializer": {"config": {}, "class_name": "Ones"}, "beta_regularizer": null, "epsilon": 0.001, "gamma_initializer": {"config": {}, "class_name": "Ones"}}, "class_name": "BatchNormalization", "inbound_nodes": [[["conv2d_74", 0, 0, {}]]], "name": "batch_normalization_74"}, {"config": {"trainable": true, "name": "activation_74", "activation": "relu"}, "class_name": "Activation", "inbound_nodes": [[["batch_normalization_74", 0, 0, {}]]], "name": "activation_74"}, {"config": {"use_bias": false, "name": "conv2d_71", "bias_constraint": null, "strides": [1, 1], "padding": "same", "activation": "linear", "kernel_constraint": null, "activity_regularizer": null, "trainable": true, "kernel_initializer": {"config": {"scale": 1.0, "distribution": "uniform", "mode": "fan_avg", "seed": null}, "class_name": "VarianceScaling"}, "kernel_size": [1, 1], "dilation_rate": [1, 1], "kernel_regularizer": null, "bias_regularizer": null, "filters": 192, "data_format": "channels_last", "bias_initializer": {"config": {}, "class_name": "Zeros"}}, "class_name": "Conv2D", "inbound_nodes": [[["mixed7", 0, 0, {}]]], "name": "conv2d_71"}, {"config": {"use_bias": false, "name": "conv2d_75", "bias_constraint": null, "strides": [1, 1], "padding": "same", "activation": "linear", "kernel_constraint": null, "activity_regularizer": null, "trainable": true, "kernel_initializer": {"config": {"scale": 1.0, "distribution": "uniform", "mode": "fan_avg", "seed": null}, "class_name": "VarianceScaling"}, "kernel_size": [7, 1], "dilation_rate": [1, 1], "kernel_regularizer": null, "bias_regularizer": null, "filters": 192, "data_format": "channels_last", "bias_initializer": {"config": {}, "class_name": "Zeros"}}, "class_name": "Conv2D", "inbound_nodes": [[["activation_74", 0, 0, {}]]], "name": "conv2d_75"}, {"config": {"gamma_regularizer": null, "center": true, "scale": false, "name": "batch_normalization_71", "beta_initializer": {"config": {}, "class_name": "Zeros"}, "momentum": 0.99, "moving_mean_initializer": {"config": {}, "class_name": "Zeros"}, "beta_constraint": null, "gamma_constraint": null, "trainable": true, "axis": 3, "moving_variance_initializer": {"config": {}, "class_name": "Ones"}, "beta_regularizer": null, "epsilon": 0.001, "gamma_initializer": {"config": {}, "class_name": "Ones"}}, "class_name": "BatchNormalization", "inbound_nodes": [[["conv2d_71", 0, 0, {}]]], "name": "batch_normalization_71"}, {"config": {"gamma_regularizer": null, "center": true, "scale": false, "name": "batch_normalization_75", "beta_initializer": {"config": {}, "class_name": "Zeros"}, "momentum": 0.99, "moving_mean_initializer": {"config": {}, "class_name": "Zeros"}, "beta_constraint": null, "gamma_constraint": null, "trainable": true, "axis": 3, "moving_variance_initializer": {"config": {}, "class_name": "Ones"}, "beta_regularizer": null, "epsilon": 0.001, "gamma_initializer": {"config": {}, "class_name": "Ones"}}, "class_name": "BatchNormalization", "inbound_nodes": [[["conv2d_75", 0, 0, {}]]], "name": "batch_normalization_75"}, {"config": {"trainable": true, "name": "activation_71", "activation": "relu"}, "class_name": "Activation", "inbound_nodes": [[["batch_normalization_71", 0, 0, {}]]], "name": "activation_71"}, {"config": {"trainable": true, "name": "activation_75", "activation": "relu"}, "class_name": "Activation", "inbound_nodes": [[["batch_normalization_75", 0, 0, {}]]], "name": "activation_75"}, {"config": {"use_bias": false, "name": "conv2d_72", "bias_constraint": null, "strides": [2, 2], "padding": "valid", "activation": "linear", "kernel_constraint": null, "activity_regularizer": null, "trainable": true, "kernel_initializer": {"config": {"scale": 1.0, "distribution": "uniform", "mode": "fan_avg", "seed": null}, "class_name": "VarianceScaling"}, "kernel_size": [3, 3], "dilation_rate": [1, 1], "kernel_regularizer": null, "bias_regularizer": null, "filters": 320, "data_format": "channels_last", "bias_initializer": {"config": {}, "class_name": "Zeros"}}, "class_name": "Conv2D", "inbound_nodes": [[["activation_71", 0, 0, {}]]], "name": "conv2d_72"}, {"config": {"use_bias": false, "name": "conv2d_76", "bias_constraint": null, "strides": [2, 2], "padding": "valid", "activation": "linear", "kernel_constraint": null, "activity_regularizer": null, "trainable": true, "kernel_initializer": {"config": {"scale": 1.0, "distribution": "uniform", "mode": "fan_avg", "seed": null}, "class_name": "VarianceScaling"}, "kernel_size": [3, 3], "dilation_rate": [1, 1], "kernel_regularizer": null, "bias_regularizer": null, "filters": 192, "data_format": "channels_last", "bias_initializer": {"config": {}, "class_name": "Zeros"}}, "class_name": "Conv2D", "inbound_nodes": [[["activation_75", 0, 0, {}]]], "name": "conv2d_76"}, {"config": {"gamma_regularizer": null, "center": true, "scale": false, "name": "batch_normalization_72", "beta_initializer": {"config": {}, "class_name": "Zeros"}, "momentum": 0.99, "moving_mean_initializer": {"config": {}, "class_name": "Zeros"}, "beta_constraint": null, "gamma_constraint": null, "trainable": true, "axis": 3, "moving_variance_initializer": {"config": {}, "class_name": "Ones"}, "beta_regularizer": null, "epsilon": 0.001, "gamma_initializer": {"config": {}, "class_name": "Ones"}}, "class_name": "BatchNormalization", "inbound_nodes": [[["conv2d_72", 0, 0, {}]]], "name": "batch_normalization_72"}, {"config": {"gamma_regularizer": null, "center": true, "scale": false, "name": "batch_normalization_76", "beta_initializer": {"config": {}, "class_name": "Zeros"}, "momentum": 0.99, "moving_mean_initializer": {"config": {}, "class_name": "Zeros"}, "beta_constraint": null, "gamma_constraint": null, "trainable": true, "axis": 3, "moving_variance_initializer": {"config": {}, "class_name": "Ones"}, "beta_regularizer": null, "epsilon": 0.001, "gamma_initializer": {"config": {}, "class_name": "Ones"}}, "class_name": "BatchNormalization", "inbound_nodes": [[["conv2d_76", 0, 0, {}]]], "name": "batch_normalization_76"}, {"config": {"trainable": true, "name": "activation_72", "activation": "relu"}, "class_name": "Activation", "inbound_nodes": [[["batch_normalization_72", 0, 0, {}]]], "name": "activation_72"}, {"config": {"trainable": true, "name": "activation_76", "activation": "relu"}, "class_name": "Activation", "inbound_nodes": [[["batch_normalization_76", 0, 0, {}]]], "name": "activation_76"}, {"config": {"strides": [2, 2], "name": "max_pooling2d_4", "pool_size": [3, 3], "padding": "valid", "data_format": "channels_last", "trainable": true}, "class_name": "MaxPooling2D", "inbound_nodes": [[["mixed7", 0, 0, {}]]], "name": "max_pooling2d_4"}, {"config": {"axis": 3, "trainable": true, "name": "mixed8"}, "class_name": "Concatenate", "inbound_nodes": [[["activation_72", 0, 0, {}], ["activation_76", 0, 0, {}], ["max_pooling2d_4", 0, 0, {}]]], "name": "mixed8"}, {"config": {"use_bias": false, "name": "conv2d_81", "bias_constraint": null, "strides": [1, 1], "padding": "same", "activation": "linear", "kernel_constraint": null, "activity_regularizer": null, "trainable": true, "kernel_initializer": {"config": {"scale": 1.0, "distribution": "uniform", "mode": "fan_avg", "seed": null}, "class_name": "VarianceScaling"}, "kernel_size": [1, 1], "dilation_rate": [1, 1], "kernel_regularizer": null, "bias_regularizer": null, "filters": 448, "data_format": "channels_last", "bias_initializer": {"config": {}, "class_name": "Zeros"}}, "class_name": "Conv2D", "inbound_nodes": [[["mixed8", 0, 0, {}]]], "name": "conv2d_81"}, {"config": {"gamma_regularizer": null, "center": true, "scale": false, "name": "batch_normalization_81", "beta_initializer": {"config": {}, "class_name": "Zeros"}, "momentum": 0.99, "moving_mean_initializer": {"config": {}, "class_name": "Zeros"}, "beta_constraint": null, "gamma_constraint": null, "trainable": true, "axis": 3, "moving_variance_initializer": {"config": {}, "class_name": "Ones"}, "beta_regularizer": null, "epsilon": 0.001, "gamma_initializer": {"config": {}, "class_name": "Ones"}}, "class_name": "BatchNormalization", "inbound_nodes": [[["conv2d_81", 0, 0, {}]]], "name": "batch_normalization_81"}, {"config": {"trainable": true, "name": "activation_81", "activation": "relu"}, "class_name": "Activation", "inbound_nodes": [[["batch_normalization_81", 0, 0, {}]]], "name": "activation_81"}, {"config": {"use_bias": false, "name": "conv2d_78", "bias_constraint": null, "strides": [1, 1], "padding": "same", "activation": "linear", "kernel_constraint": null, "activity_regularizer": null, "trainable": true, "kernel_initializer": {"config": {"scale": 1.0, "distribution": "uniform", "mode": "fan_avg", "seed": null}, "class_name": "VarianceScaling"}, "kernel_size": [1, 1], "dilation_rate": [1, 1], "kernel_regularizer": null, "bias_regularizer": null, "filters": 384, "data_format": "channels_last", "bias_initializer": {"config": {}, "class_name": "Zeros"}}, "class_name": "Conv2D", "inbound_nodes": [[["mixed8", 0, 0, {}]]], "name": "conv2d_78"}, {"config": {"use_bias": false, "name": "conv2d_82", "bias_constraint": null, "strides": [1, 1], "padding": "same", "activation": "linear", "kernel_constraint": null, "activity_regularizer": null, "trainable": true, "kernel_initializer": {"config": {"scale": 1.0, "distribution": "uniform", "mode": "fan_avg", "seed": null}, "class_name": "VarianceScaling"}, "kernel_size": [3, 3], "dilation_rate": [1, 1], "kernel_regularizer": null, "bias_regularizer": null, "filters": 384, "data_format": "channels_last", "bias_initializer": {"config": {}, "class_name": "Zeros"}}, "class_name": "Conv2D", "inbound_nodes": [[["activation_81", 0, 0, {}]]], "name": "conv2d_82"}, {"config": {"gamma_regularizer": null, "center": true, "scale": false, "name": "batch_normalization_78", "beta_initializer": {"config": {}, "class_name": "Zeros"}, "momentum": 0.99, "moving_mean_initializer": {"config": {}, "class_name": "Zeros"}, "beta_constraint": null, "gamma_constraint": null, "trainable": true, "axis": 3, "moving_variance_initializer": {"config": {}, "class_name": "Ones"}, "beta_regularizer": null, "epsilon": 0.001, "gamma_initializer": {"config": {}, "class_name": "Ones"}}, "class_name": "BatchNormalization", "inbound_nodes": [[["conv2d_78", 0, 0, {}]]], "name": "batch_normalization_78"}, {"config": {"gamma_regularizer": null, "center": true, "scale": false, "name": "batch_normalization_82", "beta_initializer": {"config": {}, "class_name": "Zeros"}, "momentum": 0.99, "moving_mean_initializer": {"config": {}, "class_name": "Zeros"}, "beta_constraint": null, "gamma_constraint": null, "trainable": true, "axis": 3, "moving_variance_initializer": {"config": {}, "class_name": "Ones"}, "beta_regularizer": null, "epsilon": 0.001, "gamma_initializer": {"config": {}, "class_name": "Ones"}}, "class_name": "BatchNormalization", "inbound_nodes": [[["conv2d_82", 0, 0, {}]]], "name": "batch_normalization_82"}, {"config": {"trainable": true, "name": "activation_78", "activation": "relu"}, "class_name": "Activation", "inbound_nodes": [[["batch_normalization_78", 0, 0, {}]]], "name": "activation_78"}, {"config": {"trainable": true, "name": "activation_82", "activation": "relu"}, "class_name": "Activation", "inbound_nodes": [[["batch_normalization_82", 0, 0, {}]]], "name": "activation_82"}, {"config": {"use_bias": false, "name": "conv2d_79", "bias_constraint": null, "strides": [1, 1], "padding": "same", "activation": "linear", "kernel_constraint": null, "activity_regularizer": null, "trainable": true, "kernel_initializer": {"config": {"scale": 1.0, "distribution": "uniform", "mode": "fan_avg", "seed": null}, "class_name": "VarianceScaling"}, "kernel_size": [1, 3], "dilation_rate": [1, 1], "kernel_regularizer": null, "bias_regularizer": null, "filters": 384, "data_format": "channels_last", "bias_initializer": {"config": {}, "class_name": "Zeros"}}, "class_name": "Conv2D", "inbound_nodes": [[["activation_78", 0, 0, {}]]], "name": "conv2d_79"}, {"config": {"use_bias": false, "name": "conv2d_80", "bias_constraint": null, "strides": [1, 1], "padding": "same", "activation": "linear", "kernel_constraint": null, "activity_regularizer": null, "trainable": true, "kernel_initializer": {"config": {"scale": 1.0, "distribution": "uniform", "mode": "fan_avg", "seed": null}, "class_name": "VarianceScaling"}, "kernel_size": [3, 1], "dilation_rate": [1, 1], "kernel_regularizer": null, "bias_regularizer": null, "filters": 384, "data_format": "channels_last", "bias_initializer": {"config": {}, "class_name": "Zeros"}}, "class_name": "Conv2D", "inbound_nodes": [[["activation_78", 0, 0, {}]]], "name": "conv2d_80"}, {"config": {"use_bias": false, "name": "conv2d_83", "bias_constraint": null, "strides": [1, 1], "padding": "same", "activation": "linear", "kernel_constraint": null, "activity_regularizer": null, "trainable": true, "kernel_initializer": {"config": {"scale": 1.0, "distribution": "uniform", "mode": "fan_avg", "seed": null}, "class_name": "VarianceScaling"}, "kernel_size": [1, 3], "dilation_rate": [1, 1], "kernel_regularizer": null, "bias_regularizer": null, "filters": 384, "data_format": "channels_last", "bias_initializer": {"config": {}, "class_name": "Zeros"}}, "class_name": "Conv2D", "inbound_nodes": [[["activation_82", 0, 0, {}]]], "name": "conv2d_83"}, {"config": {"use_bias": false, "name": "conv2d_84", "bias_constraint": null, "strides": [1, 1], "padding": "same", "activation": "linear", "kernel_constraint": null, "activity_regularizer": null, "trainable": true, "kernel_initializer": {"config": {"scale": 1.0, "distribution": "uniform", "mode": "fan_avg", "seed": null}, "class_name": "VarianceScaling"}, "kernel_size": [3, 1], "dilation_rate": [1, 1], "kernel_regularizer": null, "bias_regularizer": null, "filters": 384, "data_format": "channels_last", "bias_initializer": {"config": {}, "class_name": "Zeros"}}, "class_name": "Conv2D", "inbound_nodes": [[["activation_82", 0, 0, {}]]], "name": "conv2d_84"}, {"config": {"strides": [1, 1], "name": "average_pooling2d_8", "pool_size": [3, 3], "padding": "same", "data_format": "channels_last", "trainable": true}, "class_name": "AveragePooling2D", "inbound_nodes": [[["mixed8", 0, 0, {}]]], "name": "average_pooling2d_8"}, {"config": {"use_bias": false, "name": "conv2d_77", "bias_constraint": null, "strides": [1, 1], "padding": "same", "activation": "linear", "kernel_constraint": null, "activity_regularizer": null, "trainable": true, "kernel_initializer": {"config": {"scale": 1.0, "distribution": "uniform", "mode": "fan_avg", "seed": null}, "class_name": "VarianceScaling"}, "kernel_size": [1, 1], "dilation_rate": [1, 1], "kernel_regularizer": null, "bias_regularizer": null, "filters": 320, "data_format": "channels_last", "bias_initializer": {"config": {}, "class_name": "Zeros"}}, "class_name": "Conv2D", "inbound_nodes": [[["mixed8", 0, 0, {}]]], "name": "conv2d_77"}, {"config": {"gamma_regularizer": null, "center": true, "scale": false, "name": "batch_normalization_79", "beta_initializer": {"config": {}, "class_name": "Zeros"}, "momentum": 0.99, "moving_mean_initializer": {"config": {}, "class_name": "Zeros"}, "beta_constraint": null, "gamma_constraint": null, "trainable": true, "axis": 3, "moving_variance_initializer": {"config": {}, "class_name": "Ones"}, "beta_regularizer": null, "epsilon": 0.001, "gamma_initializer": {"config": {}, "class_name": "Ones"}}, "class_name": "BatchNormalization", "inbound_nodes": [[["conv2d_79", 0, 0, {}]]], "name": "batch_normalization_79"}, {"config": {"gamma_regularizer": null, "center": true, "scale": false, "name": "batch_normalization_80", "beta_initializer": {"config": {}, "class_name": "Zeros"}, "momentum": 0.99, "moving_mean_initializer": {"config": {}, "class_name": "Zeros"}, "beta_constraint": null, "gamma_constraint": null, "trainable": true, "axis": 3, "moving_variance_initializer": {"config": {}, "class_name": "Ones"}, "beta_regularizer": null, "epsilon": 0.001, "gamma_initializer": {"config": {}, "class_name": "Ones"}}, "class_name": "BatchNormalization", "inbound_nodes": [[["conv2d_80", 0, 0, {}]]], "name": "batch_normalization_80"}, {"config": {"gamma_regularizer": null, "center": true, "scale": false, "name": "batch_normalization_83", "beta_initializer": {"config": {}, "class_name": "Zeros"}, "momentum": 0.99, "moving_mean_initializer": {"config": {}, "class_name": "Zeros"}, "beta_constraint": null, "gamma_constraint": null, "trainable": true, "axis": 3, "moving_variance_initializer": {"config": {}, "class_name": "Ones"}, "beta_regularizer": null, "epsilon": 0.001, "gamma_initializer": {"config": {}, "class_name": "Ones"}}, "class_name": "BatchNormalization", "inbound_nodes": [[["conv2d_83", 0, 0, {}]]], "name": "batch_normalization_83"}, {"config": {"gamma_regularizer": null, "center": true, "scale": false, "name": "batch_normalization_84", "beta_initializer": {"config": {}, "class_name": "Zeros"}, "momentum": 0.99, "moving_mean_initializer": {"config": {}, "class_name": "Zeros"}, "beta_constraint": null, "gamma_constraint": null, "trainable": true, "axis": 3, "moving_variance_initializer": {"config": {}, "class_name": "Ones"}, "beta_regularizer": null, "epsilon": 0.001, "gamma_initializer": {"config": {}, "class_name": "Ones"}}, "class_name": "BatchNormalization", "inbound_nodes": [[["conv2d_84", 0, 0, {}]]], "name": "batch_normalization_84"}, {"config": {"use_bias": false, "name": "conv2d_85", "bias_constraint": null, "strides": [1, 1], "padding": "same", "activation": "linear", "kernel_constraint": null, "activity_regularizer": null, "trainable": true, "kernel_initializer": {"config": {"scale": 1.0, "distribution": "uniform", "mode": "fan_avg", "seed": null}, "class_name": "VarianceScaling"}, "kernel_size": [1, 1], "dilation_rate": [1, 1], "kernel_regularizer": null, "bias_regularizer": null, "filters": 192, "data_format": "channels_last", "bias_initializer": {"config": {}, "class_name": "Zeros"}}, "class_name": "Conv2D", "inbound_nodes": [[["average_pooling2d_8", 0, 0, {}]]], "name": "conv2d_85"}, {"config": {"gamma_regularizer": null, "center": true, "scale": false, "name": "batch_normalization_77", "beta_initializer": {"config": {}, "class_name": "Zeros"}, "momentum": 0.99, "moving_mean_initializer": {"config": {}, "class_name": "Zeros"}, "beta_constraint": null, "gamma_constraint": null, "trainable": true, "axis": 3, "moving_variance_initializer": {"config": {}, "class_name": "Ones"}, "beta_regularizer": null, "epsilon": 0.001, "gamma_initializer": {"config": {}, "class_name": "Ones"}}, "class_name": "BatchNormalization", "inbound_nodes": [[["conv2d_77", 0, 0, {}]]], "name": "batch_normalization_77"}, {"config": {"trainable": true, "name": "activation_79", "activation": "relu"}, "class_name": "Activation", "inbound_nodes": [[["batch_normalization_79", 0, 0, {}]]], "name": "activation_79"}, {"config": {"trainable": true, "name": "activation_80", "activation": "relu"}, "class_name": "Activation", "inbound_nodes": [[["batch_normalization_80", 0, 0, {}]]], "name": "activation_80"}, {"config": {"trainable": true, "name": "activation_83", "activation": "relu"}, "class_name": "Activation", "inbound_nodes": [[["batch_normalization_83", 0, 0, {}]]], "name": "activation_83"}, {"config": {"trainable": true, "name": "activation_84", "activation": "relu"}, "class_name": "Activation", "inbound_nodes": [[["batch_normalization_84", 0, 0, {}]]], "name": "activation_84"}, {"config": {"gamma_regularizer": null, "center": true, "scale": false, "name": "batch_normalization_85", "beta_initializer": {"config": {}, "class_name": "Zeros"}, "momentum": 0.99, "moving_mean_initializer": {"config": {}, "class_name": "Zeros"}, "beta_constraint": null, "gamma_constraint": null, "trainable": true, "axis": 3, "moving_variance_initializer": {"config": {}, "class_name": "Ones"}, "beta_regularizer": null, "epsilon": 0.001, "gamma_initializer": {"config": {}, "class_name": "Ones"}}, "class_name": "BatchNormalization", "inbound_nodes": [[["conv2d_85", 0, 0, {}]]], "name": "batch_normalization_85"}, {"config": {"trainable": true, "name": "activation_77", "activation": "relu"}, "class_name": "Activation", "inbound_nodes": [[["batch_normalization_77", 0, 0, {}]]], "name": "activation_77"}, {"config": {"axis": 3, "trainable": true, "name": "mixed9_0"}, "class_name": "Concatenate", "inbound_nodes": [[["activation_79", 0, 0, {}], ["activation_80", 0, 0, {}]]], "name": "mixed9_0"}, {"config": {"axis": 3, "trainable": true, "name": "concatenate_1"}, "class_name": "Concatenate", "inbound_nodes": [[["activation_83", 0, 0, {}], ["activation_84", 0, 0, {}]]], "name": "concatenate_1"}, {"config": {"trainable": true, "name": "activation_85", "activation": "relu"}, "class_name": "Activation", "inbound_nodes": [[["batch_normalization_85", 0, 0, {}]]], "name": "activation_85"}, {"config": {"axis": 3, "trainable": true, "name": "mixed9"}, "class_name": "Concatenate", "inbound_nodes": [[["activation_77", 0, 0, {}], ["mixed9_0", 0, 0, {}], ["concatenate_1", 0, 0, {}], ["activation_85", 0, 0, {}]]], "name": "mixed9"}, {"config": {"use_bias": false, "name": "conv2d_90", "bias_constraint": null, "strides": [1, 1], "padding": "same", "activation": "linear", "kernel_constraint": null, "activity_regularizer": null, "trainable": true, "kernel_initializer": {"config": {"scale": 1.0, "distribution": "uniform", "mode": "fan_avg", "seed": null}, "class_name": "VarianceScaling"}, "kernel_size": [1, 1], "dilation_rate": [1, 1], "kernel_regularizer": null, "bias_regularizer": null, "filters": 448, "data_format": "channels_last", "bias_initializer": {"config": {}, "class_name": "Zeros"}}, "class_name": "Conv2D", "inbound_nodes": [[["mixed9", 0, 0, {}]]], "name": "conv2d_90"}, {"config": {"gamma_regularizer": null, "center": true, "scale": false, "name": "batch_normalization_90", "beta_initializer": {"config": {}, "class_name": "Zeros"}, "momentum": 0.99, "moving_mean_initializer": {"config": {}, "class_name": "Zeros"}, "beta_constraint": null, "gamma_constraint": null, "trainable": true, "axis": 3, "moving_variance_initializer": {"config": {}, "class_name": "Ones"}, "beta_regularizer": null, "epsilon": 0.001, "gamma_initializer": {"config": {}, "class_name": "Ones"}}, "class_name": "BatchNormalization", "inbound_nodes": [[["conv2d_90", 0, 0, {}]]], "name": "batch_normalization_90"}, {"config": {"trainable": true, "name": "activation_90", "activation": "relu"}, "class_name": "Activation", "inbound_nodes": [[["batch_normalization_90", 0, 0, {}]]], "name": "activation_90"}, {"config": {"use_bias": false, "name": "conv2d_87", "bias_constraint": null, "strides": [1, 1], "padding": "same", "activation": "linear", "kernel_constraint": null, "activity_regularizer": null, "trainable": true, "kernel_initializer": {"config": {"scale": 1.0, "distribution": "uniform", "mode": "fan_avg", "seed": null}, "class_name": "VarianceScaling"}, "kernel_size": [1, 1], "dilation_rate": [1, 1], "kernel_regularizer": null, "bias_regularizer": null, "filters": 384, "data_format": "channels_last", "bias_initializer": {"config": {}, "class_name": "Zeros"}}, "class_name": "Conv2D", "inbound_nodes": [[["mixed9", 0, 0, {}]]], "name": "conv2d_87"}, {"config": {"use_bias": false, "name": "conv2d_91", "bias_constraint": null, "strides": [1, 1], "padding": "same", "activation": "linear", "kernel_constraint": null, "activity_regularizer": null, "trainable": true, "kernel_initializer": {"config": {"scale": 1.0, "distribution": "uniform", "mode": "fan_avg", "seed": null}, "class_name": "VarianceScaling"}, "kernel_size": [3, 3], "dilation_rate": [1, 1], "kernel_regularizer": null, "bias_regularizer": null, "filters": 384, "data_format": "channels_last", "bias_initializer": {"config": {}, "class_name": "Zeros"}}, "class_name": "Conv2D", "inbound_nodes": [[["activation_90", 0, 0, {}]]], "name": "conv2d_91"}, {"config": {"gamma_regularizer": null, "center": true, "scale": false, "name": "batch_normalization_87", "beta_initializer": {"config": {}, "class_name": "Zeros"}, "momentum": 0.99, "moving_mean_initializer": {"config": {}, "class_name": "Zeros"}, "beta_constraint": null, "gamma_constraint": null, "trainable": true, "axis": 3, "moving_variance_initializer": {"config": {}, "class_name": "Ones"}, "beta_regularizer": null, "epsilon": 0.001, "gamma_initializer": {"config": {}, "class_name": "Ones"}}, "class_name": "BatchNormalization", "inbound_nodes": [[["conv2d_87", 0, 0, {}]]], "name": "batch_normalization_87"}, {"config": {"gamma_regularizer": null, "center": true, "scale": false, "name": "batch_normalization_91", "beta_initializer": {"config": {}, "class_name": "Zeros"}, "momentum": 0.99, "moving_mean_initializer": {"config": {}, "class_name": "Zeros"}, "beta_constraint": null, "gamma_constraint": null, "trainable": true, "axis": 3, "moving_variance_initializer": {"config": {}, "class_name": "Ones"}, "beta_regularizer": null, "epsilon": 0.001, "gamma_initializer": {"config": {}, "class_name": "Ones"}}, "class_name": "BatchNormalization", "inbound_nodes": [[["conv2d_91", 0, 0, {}]]], "name": "batch_normalization_91"}, {"config": {"trainable": true, "name": "activation_87", "activation": "relu"}, "class_name": "Activation", "inbound_nodes": [[["batch_normalization_87", 0, 0, {}]]], "name": "activation_87"}, {"config": {"trainable": true, "name": "activation_91", "activation": "relu"}, "class_name": "Activation", "inbound_nodes": [[["batch_normalization_91", 0, 0, {}]]], "name": "activation_91"}, {"config": {"use_bias": false, "name": "conv2d_88", "bias_constraint": null, "strides": [1, 1], "padding": "same", "activation": "linear", "kernel_constraint": null, "activity_regularizer": null, "trainable": true, "kernel_initializer": {"config": {"scale": 1.0, "distribution": "uniform", "mode": "fan_avg", "seed": null}, "class_name": "VarianceScaling"}, "kernel_size": [1, 3], "dilation_rate": [1, 1], "kernel_regularizer": null, "bias_regularizer": null, "filters": 384, "data_format": "channels_last", "bias_initializer": {"config": {}, "class_name": "Zeros"}}, "class_name": "Conv2D", "inbound_nodes": [[["activation_87", 0, 0, {}]]], "name": "conv2d_88"}, {"config": {"use_bias": false, "name": "conv2d_89", "bias_constraint": null, "strides": [1, 1], "padding": "same", "activation": "linear", "kernel_constraint": null, "activity_regularizer": null, "trainable": true, "kernel_initializer": {"config": {"scale": 1.0, "distribution": "uniform", "mode": "fan_avg", "seed": null}, "class_name": "VarianceScaling"}, "kernel_size": [3, 1], "dilation_rate": [1, 1], "kernel_regularizer": null, "bias_regularizer": null, "filters": 384, "data_format": "channels_last", "bias_initializer": {"config": {}, "class_name": "Zeros"}}, "class_name": "Conv2D", "inbound_nodes": [[["activation_87", 0, 0, {}]]], "name": "conv2d_89"}, {"config": {"use_bias": false, "name": "conv2d_92", "bias_constraint": null, "strides": [1, 1], "padding": "same", "activation": "linear", "kernel_constraint": null, "activity_regularizer": null, "trainable": true, "kernel_initializer": {"config": {"scale": 1.0, "distribution": "uniform", "mode": "fan_avg", "seed": null}, "class_name": "VarianceScaling"}, "kernel_size": [1, 3], "dilation_rate": [1, 1], "kernel_regularizer": null, "bias_regularizer": null, "filters": 384, "data_format": "channels_last", "bias_initializer": {"config": {}, "class_name": "Zeros"}}, "class_name": "Conv2D", "inbound_nodes": [[["activation_91", 0, 0, {}]]], "name": "conv2d_92"}, {"config": {"use_bias": false, "name": "conv2d_93", "bias_constraint": null, "strides": [1, 1], "padding": "same", "activation": "linear", "kernel_constraint": null, "activity_regularizer": null, "trainable": true, "kernel_initializer": {"config": {"scale": 1.0, "distribution": "uniform", "mode": "fan_avg", "seed": null}, "class_name": "VarianceScaling"}, "kernel_size": [3, 1], "dilation_rate": [1, 1], "kernel_regularizer": null, "bias_regularizer": null, "filters": 384, "data_format": "channels_last", "bias_initializer": {"config": {}, "class_name": "Zeros"}}, "class_name": "Conv2D", "inbound_nodes": [[["activation_91", 0, 0, {}]]], "name": "conv2d_93"}, {"config": {"strides": [1, 1], "name": "average_pooling2d_9", "pool_size": [3, 3], "padding": "same", "data_format": "channels_last", "trainable": true}, "class_name": "AveragePooling2D", "inbound_nodes": [[["mixed9", 0, 0, {}]]], "name": "average_pooling2d_9"}, {"config": {"use_bias": false, "name": "conv2d_86", "bias_constraint": null, "strides": [1, 1], "padding": "same", "activation": "linear", "kernel_constraint": null, "activity_regularizer": null, "trainable": true, "kernel_initializer": {"config": {"scale": 1.0, "distribution": "uniform", "mode": "fan_avg", "seed": null}, "class_name": "VarianceScaling"}, "kernel_size": [1, 1], "dilation_rate": [1, 1], "kernel_regularizer": null, "bias_regularizer": null, "filters": 320, "data_format": "channels_last", "bias_initializer": {"config": {}, "class_name": "Zeros"}}, "class_name": "Conv2D", "inbound_nodes": [[["mixed9", 0, 0, {}]]], "name": "conv2d_86"}, {"config": {"gamma_regularizer": null, "center": true, "scale": false, "name": "batch_normalization_88", "beta_initializer": {"config": {}, "class_name": "Zeros"}, "momentum": 0.99, "moving_mean_initializer": {"config": {}, "class_name": "Zeros"}, "beta_constraint": null, "gamma_constraint": null, "trainable": true, "axis": 3, "moving_variance_initializer": {"config": {}, "class_name": "Ones"}, "beta_regularizer": null, "epsilon": 0.001, "gamma_initializer": {"config": {}, "class_name": "Ones"}}, "class_name": "BatchNormalization", "inbound_nodes": [[["conv2d_88", 0, 0, {}]]], "name": "batch_normalization_88"}, {"config": {"gamma_regularizer": null, "center": true, "scale": false, "name": "batch_normalization_89", "beta_initializer": {"config": {}, "class_name": "Zeros"}, "momentum": 0.99, "moving_mean_initializer": {"config": {}, "class_name": "Zeros"}, "beta_constraint": null, "gamma_constraint": null, "trainable": true, "axis": 3, "moving_variance_initializer": {"config": {}, "class_name": "Ones"}, "beta_regularizer": null, "epsilon": 0.001, "gamma_initializer": {"config": {}, "class_name": "Ones"}}, "class_name": "BatchNormalization", "inbound_nodes": [[["conv2d_89", 0, 0, {}]]], "name": "batch_normalization_89"}, {"config": {"gamma_regularizer": null, "center": true, "scale": false, "name": "batch_normalization_92", "beta_initializer": {"config": {}, "class_name": "Zeros"}, "momentum": 0.99, "moving_mean_initializer": {"config": {}, "class_name": "Zeros"}, "beta_constraint": null, "gamma_constraint": null, "trainable": true, "axis": 3, "moving_variance_initializer": {"config": {}, "class_name": "Ones"}, "beta_regularizer": null, "epsilon": 0.001, "gamma_initializer": {"config": {}, "class_name": "Ones"}}, "class_name": "BatchNormalization", "inbound_nodes": [[["conv2d_92", 0, 0, {}]]], "name": "batch_normalization_92"}, {"config": {"gamma_regularizer": null, "center": true, "scale": false, "name": "batch_normalization_93", "beta_initializer": {"config": {}, "class_name": "Zeros"}, "momentum": 0.99, "moving_mean_initializer": {"config": {}, "class_name": "Zeros"}, "beta_constraint": null, "gamma_constraint": null, "trainable": true, "axis": 3, "moving_variance_initializer": {"config": {}, "class_name": "Ones"}, "beta_regularizer": null, "epsilon": 0.001, "gamma_initializer": {"config": {}, "class_name": "Ones"}}, "class_name": "BatchNormalization", "inbound_nodes": [[["conv2d_93", 0, 0, {}]]], "name": "batch_normalization_93"}, {"config": {"use_bias": false, "name": "conv2d_94", "bias_constraint": null, "strides": [1, 1], "padding": "same", "activation": "linear", "kernel_constraint": null, "activity_regularizer": null, "trainable": true, "kernel_initializer": {"config": {"scale": 1.0, "distribution": "uniform", "mode": "fan_avg", "seed": null}, "class_name": "VarianceScaling"}, "kernel_size": [1, 1], "dilation_rate": [1, 1], "kernel_regularizer": null, "bias_regularizer": null, "filters": 192, "data_format": "channels_last", "bias_initializer": {"config": {}, "class_name": "Zeros"}}, "class_name": "Conv2D", "inbound_nodes": [[["average_pooling2d_9", 0, 0, {}]]], "name": "conv2d_94"}, {"config": {"gamma_regularizer": null, "center": true, "scale": false, "name": "batch_normalization_86", "beta_initializer": {"config": {}, "class_name": "Zeros"}, "momentum": 0.99, "moving_mean_initializer": {"config": {}, "class_name": "Zeros"}, "beta_constraint": null, "gamma_constraint": null, "trainable": true, "axis": 3, "moving_variance_initializer": {"config": {}, "class_name": "Ones"}, "beta_regularizer": null, "epsilon": 0.001, "gamma_initializer": {"config": {}, "class_name": "Ones"}}, "class_name": "BatchNormalization", "inbound_nodes": [[["conv2d_86", 0, 0, {}]]], "name": "batch_normalization_86"}, {"config": {"trainable": true, "name": "activation_88", "activation": "relu"}, "class_name": "Activation", "inbound_nodes": [[["batch_normalization_88", 0, 0, {}]]], "name": "activation_88"}, {"config": {"trainable": true, "name": "activation_89", "activation": "relu"}, "class_name": "Activation", "inbound_nodes": [[["batch_normalization_89", 0, 0, {}]]], "name": "activation_89"}, {"config": {"trainable": true, "name": "activation_92", "activation": "relu"}, "class_name": "Activation", "inbound_nodes": [[["batch_normalization_92", 0, 0, {}]]], "name": "activation_92"}, {"config": {"trainable": true, "name": "activation_93", "activation": "relu"}, "class_name": "Activation", "inbound_nodes": [[["batch_normalization_93", 0, 0, {}]]], "name": "activation_93"}, {"config": {"gamma_regularizer": null, "center": true, "scale": false, "name": "batch_normalization_94", "beta_initializer": {"config": {}, "class_name": "Zeros"}, "momentum": 0.99, "moving_mean_initializer": {"config": {}, "class_name": "Zeros"}, "beta_constraint": null, "gamma_constraint": null, "trainable": true, "axis": 3, "moving_variance_initializer": {"config": {}, "class_name": "Ones"}, "beta_regularizer": null, "epsilon": 0.001, "gamma_initializer": {"config": {}, "class_name": "Ones"}}, "class_name": "BatchNormalization", "inbound_nodes": [[["conv2d_94", 0, 0, {}]]], "name": "batch_normalization_94"}, {"config": {"trainable": true, "name": "activation_86", "activation": "relu"}, "class_name": "Activation", "inbound_nodes": [[["batch_normalization_86", 0, 0, {}]]], "name": "activation_86"}, {"config": {"axis": 3, "trainable": true, "name": "mixed9_1"}, "class_name": "Concatenate", "inbound_nodes": [[["activation_88", 0, 0, {}], ["activation_89", 0, 0, {}]]], "name": "mixed9_1"}, {"config": {"axis": 3, "trainable": true, "name": "concatenate_2"}, "class_name": "Concatenate", "inbound_nodes": [[["activation_92", 0, 0, {}], ["activation_93", 0, 0, {}]]], "name": "concatenate_2"}, {"config": {"trainable": true, "name": "activation_94", "activation": "relu"}, "class_name": "Activation", "inbound_nodes": [[["batch_normalization_94", 0, 0, {}]]], "name": "activation_94"}, {"config": {"axis": 3, "trainable": true, "name": "mixed10"}, "class_name": "Concatenate", "inbound_nodes": [[["activation_86", 0, 0, {}], ["mixed9_1", 0, 0, {}], ["concatenate_2", 0, 0, {}], ["activation_94", 0, 0, {}]]], "name": "mixed10"}, {"config": {"trainable": true, "name": "global_average_pooling2d_1", "data_format": "channels_last"}, "class_name": "GlobalAveragePooling2D", "inbound_nodes": [[["mixed10", 0, 0, {}]]], "name": "global_average_pooling2d_1"}, {"config": {"kernel_initializer": {"config": {"scale": 1.0, "distribution": "uniform", "mode": "fan_avg", "seed": null}, "class_name": "VarianceScaling"}, "bias_initializer": {"config": {}, "class_name": "Zeros"}, "name": "dense_1", "bias_regularizer": null, "kernel_constraint": null, "trainable": true, "use_bias": true, "kernel_regularizer": null, "activation": "relu", "activity_regularizer": null, "bias_constraint": null, "units": 512}, "class_name": "Dense", "inbound_nodes": [[["global_average_pooling2d_1", 0, 0, {}]]], "name": "dense_1"}, {"config": {"kernel_initializer": {"config": {"scale": 1.0, "distribution": "uniform", "mode": "fan_avg", "seed": null}, "class_name": "VarianceScaling"}, "bias_initializer": {"config": {}, "class_name": "Zeros"}, "name": "dense_2", "bias_regularizer": null, "kernel_constraint": null, "trainable": true, "use_bias": true, "kernel_regularizer": null, "activation": "softmax", "activity_regularizer": null, "bias_constraint": null, "units": 6}, "class_name": "Dense", "inbound_nodes": [[["dense_1", 0, 0, {}]]], "name": "dense_2"}], "output_layers": [["dense_2", 0, 0]], "input_layers": [["input_1", 0, 0]], "name": "model_1"}, "keras_version": "2.2.2", "class_name": "Model", "backend": "tensorflow"}